hey_meg.tflite (tflite, 339960 bytes, 13 tensors)

Const_1 f4 [112]
0	0xbb98decf	-0.0046652327
1	0xbbd79297	-0.006578754
2	0xbc5c529d	-0.013447431
3	0x3b9b7a28	0.004744787
4	0x3c685c68	0.014182188
5	0xbc3e18ae	-0.011602564
6	0xbb87b934	-0.004141951
7	0xbc0f695a	-0.008753145
8	0x3b8a4781	0.0042199497
9	0xbbaaa16d	-0.0052072317
10	0xba9f46fd	-0.0012151893
11	0xbb46280c	-0.0030236272
12	0x3bcb8197	0.0062105167
13	0x3b9cedc6	0.004789087
14	0xbc14b72b	-0.009076874
15	0x3c21710c	0.009853613
16	0x3c6b4060	0.01435861
17	0x3c21244b	0.009835313
18	0xbc3f5456	-0.011677822
19	0x3c9ef34f	0.019403128
20	0x3a3f9fd5	0.00073098886
21	0xbbf04c0a	-0.0073332833
22	0x3c8edadd	0.017438347
23	0x3c6cff48	0.014465161
24	0xbb16a5f3	-0.0022987097
25	0xbc340fad	-0.0109900655
26	0xbc5420c3	-0.012947264
27	0x3c8daeb1	0.017295213
28	0xbc90da9f	-0.017682372
29	0xbc9fe632	-0.019518945
30	0xbbd9d582	-0.0066477666
31	0xbc38fc43	-0.011290613
32	0xbc12e8ab	-0.008966605
33	0xbc9872b7	-0.018609388
34	0xbc8382ea	-0.016053636
35	0x3c74051a	0.014893794
36	0x3ca04d13	0.019568002
37	0xbbce8198	-0.00630207
38	0x3c4340cb	0.011917303
39	0x3b9ea8c5	0.0048418962
40	0xbc00e4cd	-0.00786705
41	0xbc175c03	-0.009238246
42	0x3c8bfa8e	0.017087247
43	0x3a94f6d1	0.0011365061
44	0xbbda0b10	-0.006654151
45	0x3710f7c6	8.640758e-06
46	0xbb56e227	-0.0032788606
47	0xbb97c37a	-0.004631457
48	0x3a0241cf	0.00049689127
49	0xbb6c55ca	-0.0036061876
50	0xbc1588df	-0.009126871
51	0x3c1c4062	0.009536834
52	0x3c2061c7	0.009788937
53	0x3c9ee9ee	0.019398656
54	0x3bbca821	0.005757347
55	0xbc3c6a12	-0.0114998985
56	0x3c672fbb	0.014110501
57	0x3c510373	0.01275717
58	0xb99f3727	-0.00030367935
59	0x3ca731d0	0.020409495
60	0x3c82200a	0.015884418
61	0x3bab0bab	0.005219897
62	0xbb84e09f	-0.0040550972
63	0xbc6f7302	-0.014614822
64	0x3cb744e9	0.022371726
65	0x3a8e88c5	0.0010874501
66	0x3bfa0078	0.0076294504
67	0x3c93ba20	0.018033087
68	0x3c95d370	0.018289298
69	0xbc78ee93	-0.015193599
70	0x3b4db703	0.00313896
71	0xbc7120cf	-0.014717295
72	0x3a744ee5	0.00093196175
73	0x3baa32ad	0.0051940293
74	0x3c465ca1	0.012107045
75	0x3bca2f6f	0.0061702053
76	0xbc1e8e9d	-0.009677556
77	0xbc5e5d42	-0.013572039
78	0xbc81d9b3	-0.015850877
79	0x3c4e1a7a	0.012579555
80	0xbb257fe6	-0.0025253235
81	0xbb97ce10	-0.004632719
82	0x3c491dc4	0.012275163
83	0xbc198c0f	-0.0093717715
84	0xbc3fc655	-0.011705001
85	0xbc35ebd7	-0.011103592
86	0x3ba06835	0.004895235
87	0xb9febe1b	-0.00048588295
88	0xbaa1fca7	-0.0012358621
89	0x39dcf972	0.0004214752
90	0xbb454ee3	-0.0030106835
91	0x3c617e92	0.013763087
92	0x3c8c9278	0.017159685
93	0x3c48d50a	0.012257824
94	0x3c7e6442	0.015526833
95	0xbc00b580	-0.007855773
96	0x3c378258	0.01120051
97	0xbc5ae5d7	-0.013360462
98	0x3c2404c0	0.010010898
99	0x3bbaaf07	0.0056971344
100	0x3c451e0f	0.012031092
101	0x3c0dfe13	0.008666533
102	0x3b9d61ca	0.004802917
103	0x3c7b7db5	0.015349795
104	0xbc8ece6f	-0.01743242
105	0xb98c028b	-0.00026704776
106	0xbbf4f932	-0.0074759955
107	0xbb3be657	-0.0028671229
108	0x3c0e6def	0.008693202
109	0xbc32c22b	-0.010910551
110	0x3bd5302b	0.006505986
111	0xbabd2944	-0.0014431854

Const_10 f4 [112]
0	0x3f8213f5	1.016234
1	0x3f88ee97	1.0697812
2	0x3f88b043	1.0678791
3	0x3f837fc7	1.027337
4	0x3f84eeb9	1.0385352
5	0x3f899010	1.0747089
6	0x3f891fc6	1.0712821
7	0x3f809fec	1.0048804
8	0x3f8cb7dd	1.0993611
9	0x3f8e822a	1.1133473
10	0x3f866963	1.0500911
11	0x3f8a89b2	1.0823271
12	0x3f88cff3	1.0688461
13	0x3f8a9f3f	1.0829848
14	0x3f88872b	1.066625
15	0x3f7f0062	0.9960996
16	0x3f804eae	1.0024011
17	0x3f8ae9e3	1.0852627
18	0x3f807271	1.0034925
19	0x3f8f4419	1.1192657
20	0x3f81a9e2	1.0129969
21	0x3f82ffde	1.0234334
22	0x3f87dcd8	1.0614271
23	0x3f8b336a	1.0875065
24	0x3f7f8440	0.9981117
25	0x3f89eef7	1.0776051
26	0x3f845b3b	1.0340341
27	0x3f8a6d1d	1.0814549
28	0x3f872a29	1.0559741
29	0x3f883c47	1.0643395
30	0x3f8806a5	1.0627028
31	0x3f801d7f	1.0009001
32	0x3f8794e5	1.0592314
33	0x3f844a62	1.03352
34	0x3f8ea887	1.114518
35	0x3f8889de	1.0667074
36	0x3f7e2c18	0.9928603
37	0x3f7dbd3f	0.9911689
38	0x3f88a40a	1.0675061
39	0x3f7c705d	0.9860895
40	0x3f7d6335	0.989795
41	0x3f8bbcd2	1.0916998
42	0x3f88c0a5	1.068379
43	0x3f888547	1.0665673
44	0x3f802485	1.0011145
45	0x3f7fee60	0.99973106
46	0x3f89affa	1.0756829
47	0x3f8ad0f0	1.0845013
48	0x3f8aefcd	1.0854431
49	0x3f88c645	1.0685507
50	0x3f80eceb	1.0072302
51	0x3f815f31	1.0107175
52	0x3f80acf5	1.0052782
53	0x3f803a9b	1.0017885
54	0x3f80a27e	1.0049589
55	0x3f8817af	1.0632228
56	0x3f7f3b65	0.99700004
57	0x3f892773	1.0715164
58	0x3f84c963	1.0373958
59	0x3f86a20d	1.0518204
60	0x3f87b2dd	1.060146
61	0x3f880dbf	1.0629195
62	0x3f7dc0b5	0.9912217
63	0x3f852140	1.0400772
64	0x3f8b4afa	1.0882256
65	0x3f84eaf7	1.0384206
66	0x3f823840	1.0173416
67	0x3f88862b	1.0665945
68	0x3f8b1032	1.0864317
69	0x3f86ad3b	1.0521616
70	0x3f8bb41d	1.0914341
71	0x3f80685b	1.0031847
72	0x3f861a7d	1.0476834
73	0x3f883bcc	1.0643249
74	0x3f8986a7	1.0744218
75	0x3f7db81b	0.9910905
76	0x3f8cc6cd	1.0998169
77	0x3f8935ff	1.0719603
78	0x3f7b3f75	0.981437
79	0x3f8a5df3	1.0809921
80	0x3f8115b7	1.0084752
81	0x3f81ff97	1.0156125
82	0x3f81f073	1.0151504
83	0x3f8aeabd	1.0852886
84	0x3f8cb820	1.099369
85	0x3f897074	1.0737443
86	0x3f873fe7	1.0566376
87	0x3f8053d4	1.0025582
88	0x3f8c6a5a	1.0969956
89	0x3f83703f	1.026863
90	0x3f8076b8	1.003623
91	0x3f8711bd	1.0552288
92	0x3f8b5b19	1.0887176
93	0x3f8e7443	1.112923
94	0x3f87a640	1.059761
95	0x3f899d45	1.075112
96	0x3f873987	1.0564431
97	0x3f8b0fb6	1.086417
98	0x3f84d1db	1.0376543
99	0x3f88df4f	1.0693148
100	0x3f88576f	1.0651683
101	0x3f8540e7	1.0410432
102	0x3f8deda6	1.108815
103	0x3f8bb0a7	1.0913285
104	0x3f8971b9	1.073783
105	0x3f86bd8d	1.0526596
106	0x3f8b6d0b	1.0892652
107	0x3f884d8f	1.0648669
108	0x3f887727	1.0661362
109	0x3f887b6e	1.0662668
110	0x3f87a89d	1.0598332
111	0x3f82f09f	1.0229682

Const_11 f4 [112]
0	0x3cd2cf3a	0.025733579
1	0x3d7d2ac2	0.061808355
2	0x3d65bb65	0.056086916
3	0x3b83bcaf	0.0040202956
4	0x3d08ced7	0.033400383
5	0x3d2bb65d	0.041921962
6	0x3d1b518f	0.037919577
7	0x3b9d0b3b	0.0047925985
8	0x3d831104	0.0639973
9	0x3d95e811	0.07319654
10	0x3cfc8425	0.03082473
11	0x3d530f08	0.051528007
12	0x3d404934	0.046944812
13	0x3d7c7085	0.061630744
14	0x3cfa9b1f	0.030591546
15	0x3b1ebae6	0.0024220287
16	0xbb41d46c	-0.0029576076
17	0x3d5455c3	0.0518396
18	0x3a00caee	0.00049130514
19	0x3d78dbaa	0.060756363
20	0x3c79cd95	0.0152467685
21	0x3c936dff	0.017996786
22	0x3d60fb47	0.054927137
23	0x3d8d9053	0.06912293
24	0xbaf27bdf	-0.0018500051
25	0x3d3dd87e	0.04634904
26	0x3ca2f68b	0.019892951
27	0x3d7574b8	0.059925765
28	0x3d1479ac	0.036248848
29	0x3c941f93	0.018081462
30	0x3d54dcfa	0.051968552
31	0x3b151c4b	0.002275246
32	0x3d8060b9	0.062684484
33	0x3cac0f35	0.021003345
34	0x3d99ad79	0.075037904
35	0x3d3f2102	0.046662338
36	0xbc954391	-0.018220695
37	0xbb13f80b	-0.0022578265
38	0x3d173600	0.036916733
39	0xbc6b3ecb	-0.014358233
40	0xbc4dbe63	-0.012557599
41	0x3d81385c	0.06309578
42	0x3d277763	0.04088534
43	0x3d7f80df	0.06237876
44	0xbb635075	-0.0034685407
45	0xbc096fdd	-0.008388487
46	0x3d68b59f	0.056813832
47	0x3d6c5e6d	0.05770724
48	0x3d8499c0	0.06474638
49	0x3d5fc75a	0.054633476
50	0x3c9753a2	0.018472496
51	0x3cebb3b0	0.028772205
52	0x370f7c60	8.5524225e-06
53	0x3c4ff4e0	0.01269266
54	0xbbc72112	-0.0060769403
55	0x3d71b570	0.059010923
56	0xbbf7c8ab	-0.0075617633
57	0x3d150269	0.03637925
58	0x3d857b45	0.065176524
59	0x3d03e886	0.032204174
60	0x3cf622df	0.030045925
61	0x3d634f02	0.05549527
62	0xbc2e5a3b	-0.01064163
63	0x3d59590a	0.05306343
64	0x3d8571fe	0.06515883
65	0x3d1022bb	0.03518937
66	0x3c9cc892	0.019138608
67	0x3d158a12	0.036508627
68	0x3d310808	0.04322055
69	0x3d394b47	0.045237806
70	0x3d7062ab	0.058687847
71	0xbba59d07	-0.0050541195
72	0x3c9af788	0.01891686
73	0x3d82d71c	0.06388685
74	0x3d669b53	0.056300472
75	0xbb90509f	-0.004404142
76	0x3d501087	0.05079701
77	0x3d29130b	0.041277926
78	0xbc9b4704	-0.018954761
79	0x3d9be01d	0.076111056
80	0x3c345fc2	0.011009159
81	0x3d0cea8a	0.03440336
82	0x3cd04382	0.025422815
83	0x3d642fbf	0.055709597
84	0x3d828d05	0.063745536
85	0x3d2db463	0.04240836
86	0x3d29506f	0.041336473
87	0xbb83c502	-0.004021288
88	0x3d6cd773	0.057822656
89	0x3c726860	0.014795393
90	0x3bed0daf	0.007234297
91	0x3d23521b	0.039873224
92	0x3d92ece0	0.071740866
93	0x3da8c53e	0.08240746
94	0x3d1b6955	0.03794225
95	0x3d64d12a	0.055863537
96	0x3cf77d4f	0.030211119
97	0x3d7da5ea	0.061925806
98	0x3d3b75fd	0.04576682
99	0x3d6eb562	0.05827845
100	0x3d7a6380	0.061130047
101	0x3ce2c42d	0.027681435
102	0x3d7ddbad	0.061977077
103	0x3d3c5093	0.04597528
104	0x3d711262	0.05885542
105	0x3c896682	0.016772512
106	0x3d4052b7	0.046953883
107	0x3d373ffa	0.044738747
108	0x3d7f81aa	0.062379517
109	0x3d74cd85	0.05976631
110	0x3d693a1b	0.05694018
111	0x3c9e6d4e	0.01933923

Const_2 f4 [112]
0	0x3f7cca95	0.98746616
1	0x3f7d3247	0.9890484
2	0x3f81c9d1	1.0139714
3	0x3f81ddf8	1.0145864
4	0x3f7dda57	0.99161285
5	0x3f7d793f	0.9901313
6	0x3f7dc51b	0.99128884
7	0x3f817cca	1.0116208
8	0x3f7bbb68	0.98332834
9	0x3f7d5502	0.98957837
10	0x3f7d43ed	0.9893177
11	0x3f8189bb	1.0120157
12	0x3f7d7ab5	0.9901536
13	0x3f80401b	1.0019563
14	0x3f7e4153	0.99318427
15	0x3f80033c	1.0000987
16	0x3f81731b	1.0113252
17	0x3f7db1cf	0.9909944
18	0x3f7f521b	0.9973466
19	0x3f7cefcb	0.98803395
20	0x3f7b360f	0.9812936
21	0x3f7d1cea	0.98872244
22	0x3f7f2f6f	0.9968175
23	0x3f7b3800	0.98132324
24	0x3f7fd2e5	0.99931175
25	0x3f80fc72	1.007704
26	0x3f80c977	1.0061482
27	0x3f7ed063	0.9953672
28	0x3f7faaa5	0.9986976
29	0x3f7e668a	0.9937521
30	0x3f7cb47a	0.98712885
31	0x3f7e7523	0.99397486
32	0x3f7dc2c7	0.9912533
33	0x3f816c90	1.0111256
34	0x3f800eaa	1.0004475
35	0x3f7a8bc7	0.97869533
36	0x3f829e78	1.0204611
37	0x3f80c59f	1.0060309
38	0x3f7b9b05	0.98283416
39	0x3f82b336	1.0210941
40	0x3f7d924d	0.9905136
41	0x3f7d2800	0.9888916
42	0x3f811e7f	1.0087432
43	0x3f802a86	1.0012977
44	0x3f7fcd60	0.9992275
45	0x3f7ccd5f	0.9875087
46	0x3f829b99	1.0203735
47	0x3f7f2078	0.9965892
48	0x3f7ccd28	0.98750544
49	0x3f7e4972	0.9933082
50	0x3f7e9d9a	0.9945923
51	0x3f7fe00d	0.9995125
52	0x3f8282a1	1.0196115
53	0x3f7d1aa7	0.98868793
54	0x3f809192	1.0044425
55	0x3f7d741d	0.990053
56	0x3f83b89d	1.0290715
57	0x3f7e9f4d	0.99461824
58	0x3f7e5f10	0.99363804
59	0x3f7cd06b	0.9875552
60	0x3f809c0a	1.0047619
61	0x3f7e8bdd	0.99432164
62	0x3f7d3083	0.9890215
63	0x3f82c8ef	1.021757
64	0x3f7e476b	0.99327725
65	0x3f7ce36b	0.9878451
66	0x3f7e5eba	0.9936329
67	0x3f7f64bb	0.9976308
68	0x3f7af67a	0.98032343
69	0x3f7ff6ba	0.9998585
70	0x3f7fd9cd	0.9994171
71	0x3f7ca61a	0.9869095
72	0x3f7c050a	0.9844519
73	0x3f8273f2	1.0191634
74	0x3f7efe8f	0.99607176
75	0x3f80f94b	1.0076078
76	0x3f7e424b	0.99319905
77	0x3f807763	1.0036434
78	0x3f7da24d	0.99075776
79	0x3f7ffc1f	0.9999408
80	0x3f7ed97d	0.9955061
81	0x3f825dc7	1.0184869
82	0x3f820a43	1.0159382
83	0x3f820c36	1.0159976
84	0x3f7e2c6a	0.9928652
85	0x3f7f7a05	0.9979556
86	0x3f814d1f	1.010166
87	0x3f80f687	1.0075234
88	0x3f7f196a	0.99648154
89	0x3f7e5ab2	0.9935714
90	0x3f7f5baa	0.99749243
91	0x3f7f8d63	0.99825114
92	0x3f7c6ed0	0.98606586
93	0x3f7c82ea	0.9863726
94	0x3f81e778	1.0148764
95	0x3f7bb4db	0.9832284
96	0x3f80681d	1.0031773
97	0x3f810fb3	1.0082916
98	0x3f84534a	1.0337918
99	0x3f7ad227	0.9797692
100	0x3f7e235f	0.9927272
101	0x3f7e22ca	0.99271834
102	0x3f78a8fa	0.9713284
103	0x3f806faa	1.0034077
104	0x3f7d2802	0.9888917
105	0x3f7acf4a	0.9797255
106	0x3f7df2c0	0.9919853
107	0x3f7f1997	0.9964842
108	0x3f7eb447	0.9949383
109	0x3f7f3cb3	0.99701995
110	0x3f7fa87b	0.99866456
111	0x3f80cc6f	1.0062388

Const_3 f4 [112]
0	0xbb7e2333	-0.0038778305
1	0xb84045ad	-4.5841258e-05
2	0x3b2b6ad7	0.002615621
3	0x3bc22e0f	0.005925901
4	0xbc32d7e7	-0.010915733
5	0xbbd59fe3	-0.006519304
6	0xbc21e86e	-0.009882076
7	0x3a310ed9	0.00067542266
8	0xbb96a69b	-0.0045974976
9	0xbbb3e5e2	-0.0054900507
10	0xbb8a52c8	-0.004221294
11	0xbaaa8de2	-0.0013012255
12	0x3a82789b	0.0009954156
13	0xbb38a824	-0.0028176391
14	0xbb19a97a	-0.0023446963
15	0x393a3727	0.00017758888
16	0xbac0b7cf	-0.0014703217
17	0xbbb57797	-0.005537938
18	0xbb0511f7	-0.0020304897
19	0xbc847a01	-0.016171457
20	0xbc595fe2	-0.013267489
21	0xbc3221ce	-0.0108723175
22	0xb9c923db	-0.00038364422
23	0xbbeec9c5	-0.0072872364
24	0xba7e3342	-0.0009696969
25	0x3b2e22b3	0.0026570975
26	0x3a325343	0.0006802568
27	0xbba2f2f5	-0.0049728104
28	0xbb474928	-0.0030408595
29	0xbb44fbab	-0.0030057232
30	0xba36b31f	-0.000696944
31	0xba8a12a5	-0.0010534121
32	0xbbba30d7	-0.0056820917
33	0x3b19b35c	0.0023452854
34	0xbc01be30	-0.007918879
35	0xbc2315f3	-0.009953964
36	0x3bb6589b	0.005564762
37	0x3ac375c5	0.0014912417
38	0xbaf0f9e5	-0.0018385021
39	0x3ada5e95	0.0016660268
40	0xbbdcb478	-0.0067353807
41	0x3af799b0	0.0018890407
42	0x3b6b58e3	0.0035911135
43	0xbb787a87	-0.003791483
44	0xbb1bceb2	-0.0023774323
45	0xbbb211e3	-0.005434261
46	0x3b3a5de7	0.0028437318
47	0xbb572aed	-0.0032831982
48	0xbb4095bd	-0.0029386126
49	0xbbc9ce0a	-0.006158595
50	0x3b5dad42	0.0033825194
51	0x3a4bc9c2	0.00077738997
52	0x3b6cfc25	0.0036161032
53	0xbb9b3811	-0.0047369082
54	0xbb409a4f	-0.002938885
55	0xbbab57f0	-0.005228989
56	0xbb19c817	-0.002346521
57	0xbc9b57db	-0.018962791
58	0xbc07f789	-0.008298763
59	0xbc5a8380	-0.013337016
60	0x3b34ead3	0.0027605786
61	0xbc4a9d6e	-0.012366636
62	0xbc022452	-0.00794323
63	0x3bf6e80d	0.007534987
64	0xba65af5f	-0.0008761789
65	0xbbbfb325	-0.005850213
66	0xbb3efaef	-0.0029141267
67	0xba1fac97	-0.00060910865
68	0xbb35ea52	-0.0027758074
69	0xbb39cca2	-0.002835073
70	0xbc065c7e	-0.008200763
71	0xbbd4d1c0	-0.0064947307
72	0xbc33f7b7	-0.010984353
73	0xbb4b9c4b	-0.00310685
74	0xbb46f3db	-0.0030357752
75	0xbae5d158	-0.0017533703
76	0xbad69ad2	-0.0016373044
77	0xbaaca87f	-0.0013172774
78	0xbc5ceba7	-0.013483918
79	0xbba63c0b	-0.0050730756
80	0x3a14955b	0.00056680077
81	0x3b56ad23	0.0032757006
82	0x3b5a8bb7	0.0033347437
83	0x3bb93750	0.0056523457
84	0xba504ac5	-0.0007945712
85	0xbc2d1f23	-0.010566506
86	0x3b62dd90	0.0034616925
87	0xb9e8d0bf	-0.00044406016
88	0xbba7b166	-0.005117583
89	0xbaec58f3	-0.001803188
90	0xbb0fbb53	-0.0021931722
91	0xba9dfc98	-0.0012053428
92	0xbabc39be	-0.001436047
93	0xbb4ad71b	-0.0030950967
94	0x3b9d17cf	0.004794098
95	0xbc6837b5	-0.014173438
96	0x3ad7efc7	0.0016474657
97	0x3b40d8e0	0.0029426143
98	0x3ba68b83	0.005082549
99	0xbac4d1d6	-0.0015016149
100	0xbaaf5197	-0.0013375756
101	0xbc2ef095	-0.010677476
102	0xbbccba1a	-0.006247771
103	0xbbb99dd3	-0.005664566
104	0xbc22c5fb	-0.009934898
105	0xbc3ab9b7	-0.011396817
106	0xbba9554d	-0.0051676393
107	0xbada4bb8	-0.0016654646
108	0xba431357	-0.00074415415
109	0xbb2065b5	-0.0024474685
110	0x39770ac0	0.0002355976
111	0xba9f6f23	-0.0012163859

Const_5 f4 [112]
0	0xbd63fc15	-0.055660326
1	0x3d272a3d	0.040811766
2	0xbbb7734e	-0.005598462
3	0xbc78dc42	-0.015189232
4	0x3d80624b	0.06268748
5	0xbd0c239f	-0.03421366
6	0xbb88d9c5	-0.004176351
7	0x3d19e2e3	0.03756989
8	0xbd25b1b3	-0.04045267
9	0x3d2a73bd	0.041614283
10	0x3d2d2a6f	0.042276796
11	0xbd1e66bb	-0.03867219
12	0x3bf8f2ef	0.0075973193
13	0xbd00d397	-0.031451788
14	0x3d91e643	0.07123997
15	0x3dbb96ef	0.09159648
16	0xbd569ccd	-0.05239563
17	0x3bf73c10	0.007545002
18	0x3c6f5158	0.014606796
19	0x3c8f6af5	0.017507056
20	0xbc7d3dd5	-0.015456636
21	0xbd330874	-0.043709233
22	0xbd1c1af3	-0.03811164
23	0xbcaf745b	-0.021417787
24	0xbd51805d	-0.051147807
25	0x3b777970	0.0037761591
26	0xbbda7d9a	-0.006667805
27	0x3ceb8efa	0.0287547
28	0xbd7cd085	-0.061722297
29	0xbd0da85b	-0.034584384
30	0xbcf6b040	-0.03011334
31	0x3d127dc4	0.03576447
32	0x3da3cb5d	0.07997773
33	0x3c44fe75	0.012023558
34	0x3d249f65	0.040191073
35	0xbc543488	-0.012951978
36	0x3cc589f3	0.02411363
37	0x3c097cbb	0.0083915545
38	0x3d892848	0.06697136
39	0x3d28e259	0.041231487
40	0xbdaf559f	-0.08561253
41	0x3d42ec55	0.047588665
42	0xbdaf70d3	-0.085664414
43	0x3d914a7f	0.07094287
44	0x3dce36fa	0.1006908
45	0xbd193c75	-0.037411172
46	0xbd4e4945	-0.050362844
47	0x3db754b2	0.08951701
48	0x3c6b05f5	0.014344682
49	0xbd15a817	-0.036537256
50	0x3bebf05a	0.007200283
51	0xbd66cf3d	-0.05634998
52	0x3d53c535	0.051701743
53	0xbc92415f	-0.017853437
54	0xbd4ef7a0	-0.050529122
55	0x3c900233	0.017579174
56	0xbd8926c6	-0.066968486
57	0xbd63e64a	-0.055639543
58	0x3d58ae33	0.052900504
59	0xbd8efd18	-0.069818676
60	0x3db2ec0c	0.087364286
61	0xbb4fe0c7	-0.003171967
62	0xbc1d165b	-0.0095878495
63	0xbd080df3	-0.033216428
64	0x3dabd29f	0.08389782
65	0x3d2803e7	0.041019347
66	0xbda41197	-0.080111675
67	0x3d98f83b	0.07469221
68	0xbc59849d	-0.013276246
69	0xbd86bc03	-0.06578829
70	0xbd92bdfa	-0.071651414
71	0xbdaafb31	-0.08348692
72	0xbcb5f62c	-0.02221211
73	0xbd61b6a2	-0.055105813
74	0x3d9cd1b2	0.07657184
75	0x3b2b9d02	0.0026186113
76	0x3dbe22b4	0.09283963
77	0xbd87535e	-0.06607698
78	0xbd7d7ebf	-0.061888453
79	0xbc072585	-0.008248691
80	0x3d9cf3d1	0.07663692
81	0xbdb8557b	-0.09000679
82	0x3cc2f237	0.023797138
83	0x3d88854f	0.066660516
84	0xbd993afe	-0.07481955
85	0xbd8459c7	-0.06462436
86	0x3d9cdb16	0.07658975
87	0x3d145805	0.036216754
88	0xbda9122f	-0.08255421
89	0x3d9f6e07	0.07784658
90	0xbc2b7e83	-0.010467174
91	0x3d1a4c2d	0.037670303
92	0x3db6e0df	0.089296095
93	0x3c251dd3	0.010077911
94	0x3db822d2	0.089910164
95	0xbd326d4f	-0.043561276
96	0x3cc63f84	0.024200208
97	0xbd8e64b9	-0.06952805
98	0x3c9f5e6b	0.019454202
99	0x3c29d976	0.010366788
100	0x3d5602b3	0.052248668
101	0x3c8ea8a3	0.017414397
102	0xbc8bb76b	-0.017055234
103	0x3d98921f	0.074497454
104	0x3dc023dd	0.093818404
105	0x3da24113	0.07922568
106	0xbdb81fa5	-0.08990411
107	0xbc5a6557	-0.013329825
108	0x3d6c1e1d	0.057645906
109	0x3c2d2665	0.010568236
110	0xbd7e323b	-0.062059622
111	0xbda0af8b	-0.07845982

Const_6 f4 [112]
0	0x3f81d777	1.014388
1	0x3f813d19	1.009677
2	0x3f7f9cb2	0.99848473
3	0x3f7f9d5b	0.9984948
4	0x3f7ef470	0.9959173
5	0x3f7d041a	0.98834383
6	0x3f7e50a0	0.99341774
7	0x3f80fda1	1.0077401
8	0x3f7d4faf	0.9894971
9	0x3f7f314f	0.99684614
10	0x3f7d4768	0.9893708
11	0x3f7dadcf	0.99093336
12	0x3f82db90	1.0223255
13	0x3f7cd3a3	0.9876043
14	0x3f7a6ff2	0.97827065
15	0x3f7c5595	0.9856809
16	0x3f81b04d	1.0131928
17	0x3f7ff698	0.9998565
18	0x3f84671d	1.0343968
19	0x3f82b4c3	1.0211414
20	0x3f7b741d	0.9822405
21	0x3f7eee93	0.99582785
22	0x3f7ca0d8	0.9868293
23	0x3f8471cf	1.0347232
24	0x3f7dd5b3	0.99154204
25	0x3f802207	1.0010384
26	0x3f82fbda	1.0233109
27	0x3f80e1fa	1.0068963
28	0x3f7dd99a	0.9916016
29	0x3f807a5f	1.0037345
30	0x3f810d17	1.008212
31	0x3f8019b4	1.0007844
32	0x3f7c7d6f	0.98628896
33	0x3f7f7cfd	0.9980009
34	0x3f7be642	0.9839822
35	0x3f817ec8	1.0116816
36	0x3f7ced42	0.98799527
37	0x3f7ac662	0.9795896
38	0x3f7a9c20	0.9789448
39	0x3f7a5015	0.97778445
40	0x3f8144b7	1.0099095
41	0x3f8122b9	1.0088722
42	0x3f8238a7	1.0173539
43	0x3f7b0f38	0.98070097
44	0x3f802060	1.000988
45	0x3f7fed48	0.9997144
46	0x3f7c36e7	0.98521274
47	0x3f80db6b	1.0066961
48	0x3f7cf61a	0.9881302
49	0x3f7b0278	0.9805064
50	0x3f804c03	1.0023197
51	0x3f7c8d73	0.98653334
52	0x3f8191ac	1.012258
53	0x3f7e34cb	0.99299306
54	0x3f803977	1.0017537
55	0x3f7e062a	0.99228156
56	0x3f80d3cd	1.0064636
57	0x3f7f58ca	0.99744856
58	0x3f8324a6	1.0245559
59	0x3f815419	1.010379
60	0x3f80d8e3	1.0066189
61	0x3f7af002	0.9802247
62	0x3f7caa1f	0.98697084
63	0x3f7e8960	0.9942837
64	0x3f7d8198	0.9902587
65	0x3f7c5910	0.985734
66	0x3f82d1db	1.0220293
67	0x3f7e4f8a	0.99340117
68	0x3f802743	1.0011982
69	0x3f8144ab	1.0099081
70	0x3f77c3df	0.9678325
71	0x3f7cfc7f	0.9882278
72	0x3f803da3	1.001881
73	0x3f83dd8d	1.0301987
74	0x3f7c63a0	0.98589516
75	0x3f83a36f	1.0284251
76	0x3f828987	1.019822
77	0x3f7d2710	0.9888773
78	0x3f7ddfa8	0.991694
79	0x3f7cdbcb	0.9877288
80	0x3f7d18ba	0.98865855
81	0x3f801dbc	1.0009074
82	0x3f81d1ca	1.0142148
83	0x3f7d335b	0.9890649
84	0x3f7c3c82	0.9852983
85	0x3f81446a	1.0099003
86	0x3f7dcccf	0.9914064
87	0x3f7f55dd	0.9974039
88	0x3f7de4cd	0.9917725
89	0x3f7acdd0	0.97970295
90	0x3f8259b0	1.018362
91	0x3f7d6080	0.9897537
92	0x3f80ca2c	1.0061698
93	0x3f80d267	1.006421
94	0x3f80b554	1.0055337
95	0x3f7bfb10	0.98429966
96	0x3f7c56f2	0.9857017
97	0x3f7d73d2	0.9900485
98	0x3f7bc79f	0.9835147
99	0x3f835aeb	1.0262121
100	0x3f7c4817	0.985475
101	0x3f7b1fb0	0.98095226
102	0x3f829611	1.0202047
103	0x3f81b2bd	1.0132672
104	0x3f8048aa	1.0022175
105	0x3f7f9100	0.9983063
106	0x3f7b8928	0.9825616
107	0x3f7b27e0	0.9810772
108	0x3f810a41	1.0081254
109	0x3f79d0e2	0.97584355
110	0x3f7cb860	0.98718834
111	0x3f7ce670	0.9878912

Const_7 f4 [112]
0	0x3a2fd33b	0.0006707196
1	0xbb9a6495	-0.0047116973
2	0x3c36e5b7	0.011163167
3	0xbc0128f4	-0.007883299
4	0x3b80ccd5	0.003930668
5	0xbc3f9240	-0.011692584
6	0xba6b0740	-0.0008965619
7	0x3ba6a442	0.005085499
8	0xbc3040a8	-0.010757603
9	0x3b6eefaa	0.003645877
10	0xbc0a75ef	-0.008450969
11	0xbc7f6d4a	-0.015590021
12	0x3c0a2846	0.0084324535
13	0x3b183403	0.002322436
14	0xbb540a38	-0.0032354724
15	0xbc15499b	-0.009111787
16	0x3bbd9daa	0.0057866173
17	0xbb6a1437	-0.0035717615
18	0x3c86451c	0.016390376
19	0x3bab0c93	0.005220005
20	0xbc1f6a6c	-0.009729963
21	0xbb2099e1	-0.0024505781
22	0xbc51bfa3	-0.012802037
23	0x3c169cd7	0.009192667
24	0xbbd115b0	-0.006380759
25	0xba02b7a3	-0.00049864704
26	0x3b9cb9a2	0.0047828713
27	0x3b208b05	0.0024496925
28	0xbc598af2	-0.013277756
29	0x3a01776b	0.0004938754
30	0x39fccdd7	0.00048218548
31	0xbb48b23c	-0.0030623814
32	0xbc741b4b	-0.014899085
33	0xbb3e0757	-0.0028996074
34	0xbbf991ed	-0.0076162727
35	0xba8754de	-0.0010324975
36	0xbc67ee78	-0.0141559765
37	0xbc049dfa	-0.008094305
38	0xbb99c519	-0.0046926853
39	0xbc80f534	-0.015741922
40	0xbb281d9b	-0.0025652412
41	0xbb25c39d	-0.0025293597
42	0x3ac69ea2	0.0015153477
43	0xbc161e7a	-0.00916254
44	0x3bd5babf	0.006522506
45	0x3c063187	0.008190519
46	0xbc27bb3f	-0.010237514
47	0x3b420c54	0.00296094
48	0xbc84e290	-0.016221315
49	0xbbb41718	-0.005495917
50	0xbb83ce1b	-0.0040223724
51	0xbc20e7d9	-0.009820902
52	0xb984df89	-0.0002534355
53	0xbbff698d	-0.007794565
54	0xbb1de198	-0.0024090763
55	0xbc52f847	-0.012876577
56	0xba8a60fe	-0.001055747
57	0xbb4466f2	-0.0029968587
58	0x3be7a453	0.0070691495
59	0x3c066931	0.0082037905
60	0x3b8b1945	0.0042449557
61	0xbc89b0e7	-0.016807986
62	0xbba14a8d	-0.004922217
63	0xbbdcd4b3	-0.006739223
64	0xbc403fd0	-0.011733964
65	0xbc5b0c75	-0.013369669
66	0x3be5c432	0.0070119137
67	0x3c152939	0.0091040665
68	0xbc013737	-0.007886699
69	0x3bde095a	0.006776017
70	0xbc77e5c8	-0.015130468
71	0xbb914583	-0.0044333353
72	0xbae1059a	-0.0017167807
73	0x3c0cde3c	0.008597907
74	0xbc8571c4	-0.0162896
75	0x3c7d5ddb	0.015464271
76	0x3c07e4dc	0.00829431
77	0x3ba9f236	0.0051863445
78	0x3b14c2cb	0.0022699113
79	0xba97e30f	-0.0011588054
80	0xbc6b1b63	-0.014349791
81	0xbbbeba77	-0.005820568
82	0x3b48f2ac	0.0030662222
83	0xbcaf6765	-0.021411607
84	0xbc6464e5	-0.013940071
85	0x3c403d3b	0.0117333485
86	0xbb3d6659	-0.0028900115
87	0xbab9cb1f	-0.0014174915
88	0xbb951441	-0.0045495336
89	0xbc86378b	-0.016383907
90	0x3be67bd7	0.007033806
91	0xbc0b6ca7	-0.008509791
92	0xbc027aea	-0.007963875
93	0xbc14f792	-0.0090922285
94	0xbb61420f	-0.003437165
95	0xbbea62df	-0.0071528996
96	0xbc4188c2	-0.011812391
97	0xbc17b53c	-0.009259518
98	0xbc83dfcd	-0.016097927
99	0x3b22f95c	0.0024867868
100	0xbc005caf	-0.0078345975
101	0xbcbf523f	-0.023354648
102	0x3c4ea862	0.012613388
103	0x3bb773dd	0.005598529
104	0xba09d5b7	-0.0005257981
105	0x3b84654b	0.0040403954
106	0xbbe4ef23	-0.006986515
107	0xbbfe1060	-0.007753417
108	0x3c072d87	0.008250601
109	0xbc85e0b1	-0.016342493
110	0xbc863223	-0.016381329
111	0xbc9a3ddb	-0.018828323

Const_9 f4 [112]
0	0xbd9f89f3	-0.077899836
1	0xbd6fa508	-0.058506995
2	0xbd0e81d5	-0.034791786
3	0xbd262d9b	-0.040570837
4	0xbd14adab	-0.036298435
5	0x3cb76105	0.02238513
6	0x3dac2790	0.084059834
7	0xbcaf1444	-0.021371968
8	0x3d2564f8	0.040379494
9	0x3dbf0a73	0.09328165
10	0x3dbfe12f	0.09369122
11	0xbd8820d6	-0.06646888
12	0xbd9f01f7	-0.07764047
13	0x3d80ffca	0.06298788
14	0xbd9271a5	-0.07150582
15	0xbcb1f0d7	-0.021721287
16	0xbcce01ca	-0.025147337
17	0x3db6cbbd	0.08925579
18	0x3d6fba2b	0.058527153
19	0x3d0a430c	0.033755347
20	0xbdbda02e	-0.092590675
21	0x3c88f22f	0.016717045
22	0xbd88c73d	-0.06678627
23	0x3c9737f7	0.018459303
24	0xbda55cc5	-0.08074335
25	0x3d940059	0.07226629
26	0xbc947f80	-0.018127203
27	0xbd939851	-0.072067864
28	0x3d9382d1	0.072026856
29	0x3bd2896d	0.006425074
30	0x3d9a4adb	0.07533809
31	0xbd9e037b	-0.077155076
32	0x3a1f7e33	0.0006084174
33	0x3dc2913f	0.0950036
34	0x3d2392e7	0.03993502
35	0xbcaf6cd7	-0.021414204
36	0x3c4c1b8f	0.012457742
37	0x3d3b04f7	0.04565903
38	0x3d805e8b	0.06268033
39	0x3cde1fcd	0.027114773
40	0xbd99b17a	-0.07504554
41	0xbc862fad	-0.016380155
42	0x3c963c97	0.018339438
43	0x3d9ccd62	0.07656361
44	0xbd295202	-0.041337974
45	0xbd4ebe37	-0.05047437
46	0x3c2508c4	0.010072891
47	0x3bcb4738	0.0062035583
48	0x3d12236b	0.03567831
49	0xbd85dacb	-0.06535872
50	0x3da59413	0.080848835
51	0xbda0caef	-0.078512065
52	0xbcd8a655	-0.0264465
53	0x3c60d90d	0.013723624
54	0x3c4422af	0.01197116
55	0x3d91d5b3	0.07120838
56	0xbd3f6a27	-0.046732094
57	0x3cbf1d27	0.02332933
58	0x3d2297f8	0.03969571
59	0x3d648fb8	0.055801123
60	0x3d5050d2	0.050858326
61	0x3d90fa07	0.07078939
62	0x3c76ed6d	0.015071255
63	0xbd69f727	-0.05712047
64	0x3c86ae54	0.016440548
65	0x3cca8c14	0.024724998
66	0xbcdd0e4d	-0.026984358
67	0xbd685b6d	-0.056727815
68	0xbd93d633	-0.0721859
69	0x3d85f07f	0.065400116
70	0xbbc1a28f	-0.005909271
71	0xbd6d3612	-0.057912894
72	0x3d45a1a6	0.048249863
73	0xbc9148db	-0.017734936
74	0xbd10f613	-0.035390925
75	0x3a915e33	0.0011090696
76	0xbd99118a	-0.074740484
77	0xbbe9698a	-0.007123177
78	0xbd734323	-0.0593902
79	0x3dc0b12a	0.09408791
80	0x3d35014d	0.044190694
81	0x3dbd0d76	0.09231083
82	0xbc9ef737	-0.01940499
83	0x3c6f393b	0.014601047
84	0xbd5fc6df	-0.054633018
85	0x3dc5580c	0.09635934
86	0x3ccecfd7	0.02524559
87	0xbd99447b	-0.07483765
88	0x3d343a0c	0.04400067
89	0xbd5bd433	-0.053669166
90	0x3cd60c17	0.026128812
91	0xbdb23b08	-0.087026656
92	0x3d833a5f	0.06407618
93	0xbd169b55	-0.03676923
94	0xbd54cbd3	-0.051952194
95	0x3d97eef3	0.07418623
96	0x3d734f45	0.05940177
97	0xbc147cf6	-0.009062996
98	0xbd68387d	-0.056694496
99	0xbd49f215	-0.049303133
100	0xbda79b12	-0.08183874
101	0xbd96397f	-0.07335185
102	0x3b8ed07b	0.004358349
103	0xbd1b0596	-0.037847124
104	0xbd94678e	-0.07246314
105	0xbd375328	-0.04475704
106	0xbcffa492	-0.031206403
107	0xbdb12b78	-0.08650869
108	0x3d4070bc	0.046982512
109	0x3dada8f9	0.084794946
110	0x3cc037d4	0.02346412
111	0xbd32e82f	-0.04367846

MatMul i1 [112, 2688] scale=0.0008038148 zero_point=0
0	0xe6	-0.020899184
1	0x0d	0.010449592
2	0xfc	-0.0032152592
3	0x0d	0.010449592
4	0x0e	0.011253407
5	0x04	0.0032152592
6	0x0c	0.009645778
7	0x0a	0.008038148
8	0x06	0.004822889
9	0xfe	-0.0016076296
10	0x11	0.013664852
11	0x22	0.027329704
12	0x1b	0.021703
13	0x15	0.01688011
14	0x0c	0.009645778
15	0xef	-0.013664852
16	0x0d	0.010449592
17	0x05	0.004019074
18	0x07	0.0056267036
19	0x06	0.004822889
20	0xec	-0.016076297
21	0x0e	0.011253407
22	0x07	0.0056267036
23	0xe6	-0.020899184
24	0xf0	-0.012861037
25	0x23	0.028133517
26	0xeb	-0.01688011
27	0xe8	-0.019291556
28	0x0d	0.010449592
29	0xf4	-0.009645778
30	0x02	0.0016076296
31	0xf8	-0.0064305183
32	0xf9	-0.0056267036
33	0x0d	0.010449592
34	0x06	0.004822889
35	0xe0	-0.025722073
36	0x0b	0.008841963
37	0xeb	-0.01688011
38	0xea	-0.017683925
39	0xff	-0.0008038148
40	0x04	0.0032152592
41	0xf6	-0.008038148
42	0xf6	-0.008038148
43	0xfb	-0.004019074
44	0x01	0.0008038148
45	0xf3	-0.010449592
46	0x11	0.013664852
47	0x17	0.01848774
48	0xf8	-0.0064305183
49	0xee	-0.014468666
50	0x04	0.0032152592
51	0x03	0.0024114444
52	0x09	0.007234333
53	0x24	0.028937332
54	0xed	-0.015272481
55	0xee	-0.014468666
56	0xe0	-0.025722073
57	0x0b	0.008841963
58	0x04	0.0032152592
59	0x06	0.004822889
60	0xe5	-0.021703
61	0x17	0.01848774
62	0xfd	-0.0024114444
63	0xf8	-0.0064305183
64	0x0c	0.009645778
65	0x03	0.0024114444
66	0x08	0.0064305183
67	0xea	-0.017683925
68	0x28	0.032152593
69	0xfa	-0.004822889
70	0xff	-0.0008038148
71	0xff	-0.0008038148
72	0x0c	0.009645778
73	0x10	0.012861037
74	0xef	-0.013664852
75	0x24	0.028937332
76	0x08	0.0064305183
77	0x17	0.01848774
78	0xec	-0.016076297
79	0x15	0.01688011
80	0xea	-0.017683925
81	0x0b	0.008841963
82	0x14	0.016076297
83	0x03	0.0024114444
84	0x07	0.0056267036
85	0x1e	0.024114443
86	0xf4	-0.009645778
87	0x0b	0.008841963
88	0x09	0.007234333
89	0x16	0.017683925
90	0xf4	-0.009645778
91	0xf3	-0.010449592
92	0xf2	-0.011253407
93	0x0f	0.0120572215
94	0xfd	-0.0024114444
95	0xff	-0.0008038148
96	0xe1	-0.024918258
97	0xec	-0.016076297
98	0x28	0.032152593
99	0x00	0.0
100	0x14	0.016076297
101	0x12	0.014468666
102	0xed	-0.015272481
103	0x10	0.012861037
104	0xeb	-0.01688011
105	0x1f	0.024918258
106	0xe9	-0.01848774
107	0x26	0.030544963
108	0x0b	0.008841963
109	0x25	0.029741148
110	0xeb	-0.01688011
111	0xf2	-0.011253407
112	0x10	0.012861037
113	0x09	0.007234333
114	0x13	0.015272481
115	0x14	0.016076297
116	0xff	-0.0008038148
117	0x11	0.013664852
118	0xff	-0.0008038148
119	0xf2	-0.011253407
120	0xf9	-0.0056267036
121	0x09	0.007234333
122	0x01	0.0008038148
123	0x0a	0.008038148
124	0xf9	-0.0056267036
125	0x03	0.0024114444
126	0x11	0.013664852
127	0x0e	0.011253407
128	0xfd	-0.0024114444
129	0xef	-0.013664852
130	0xee	-0.014468666
131	0xfd	-0.0024114444
132	0x18	0.019291556
133	0xef	-0.013664852
134	0xe6	-0.020899184
135	0x15	0.01688011
136	0xff	-0.0008038148
137	0xe9	-0.01848774
138	0x19	0.02009537
139	0xec	-0.016076297
140	0xe5	-0.021703
141	0x08	0.0064305183
142	0x13	0.015272481
143	0xf3	-0.010449592
144	0xf2	-0.011253407
145	0x08	0.0064305183
146	0x0a	0.008038148
147	0x15	0.01688011
148	0x19	0.02009537
149	0x0a	0.008038148
150	0xf6	-0.008038148
151	0xea	-0.017683925
152	0xe8	-0.019291556
153	0xf2	-0.011253407
154	0x11	0.013664852
155	0x0e	0.011253407
156	0xed	-0.015272481
157	0xfc	-0.0032152592
158	0x0a	0.008038148
159	0xee	-0.014468666
160	0xef	-0.013664852
161	0x16	0.017683925
162	0xf1	-0.0120572215
163	0xe8	-0.019291556
164	0x01	0.0008038148
165	0x0a	0.008038148
166	0xf4	-0.009645778
167	0x12	0.014468666
168	0x0a	0.008038148
169	0x00	0.0
170	0xec	-0.016076297
171	0x07	0.0056267036
172	0xfb	-0.004019074
173	0x06	0.004822889
174	0xf3	-0.010449592
175	0xf8	-0.0064305183
176	0xf0	-0.012861037
177	0x1e	0.024114443
178	0x14	0.016076297
179	0x08	0.0064305183
180	0x09	0.007234333
181	0x03	0.0024114444
182	0xef	-0.013664852
183	0x18	0.019291556
184	0xf8	-0.0064305183
185	0xed	-0.015272481
186	0xfd	-0.0024114444
187	0x08	0.0064305183
188	0x05	0.004019074
189	0xf8	-0.0064305183
190	0x0a	0.008038148
191	0x0f	0.0120572215
192	0x02	0.0016076296
193	0x15	0.01688011
194	0x1e	0.024114443
195	0x09	0.007234333
196	0xed	-0.015272481
197	0x15	0.01688011
198	0x00	0.0
199	0x1a	0.020899184
200	0xe2	-0.024114443
201	0x03	0.0024114444
202	0x14	0.016076297
203	0x1f	0.024918258
204	0x05	0.004019074
205	0xfd	-0.0024114444
206	0xf0	-0.012861037
207	0x20	0.025722073
208	0x0e	0.011253407
209	0xf9	-0.0056267036
210	0xfc	-0.0032152592
211	0xf8	-0.0064305183
212	0x04	0.0032152592
213	0xf9	-0.0056267036
214	0xf2	-0.011253407
215	0x02	0.0016076296
216	0xfd	-0.0024114444
217	0x19	0.02009537
218	0x17	0.01848774
219	0xeb	-0.01688011
220	0xf6	-0.008038148
221	0x14	0.016076297
222	0x0e	0.011253407
223	0x0a	0.008038148
224	0xe9	-0.01848774
225	0xfa	-0.004822889
226	0x03	0.0024114444
227	0x04	0.0032152592
228	0x12	0.014468666
229	0x0b	0.008841963
230	0x0a	0.008038148
231	0x0e	0.011253407
232	0x19	0.02009537
233	0xfc	-0.0032152592
234	0xfa	-0.004822889
235	0xff	-0.0008038148
236	0x01	0.0008038148
237	0xfd	-0.0024114444
238	0xe9	-0.01848774
239	0x2c	0.03536785
240	0xf0	-0.012861037
241	0x16	0.017683925
242	0xee	-0.014468666
243	0x18	0.019291556
244	0xfc	-0.0032152592
245	0x02	0.0016076296
246	0x19	0.02009537
247	0x01	0.0008038148
248	0xfa	-0.004822889
249	0xf5	-0.008841963
250	0xf3	-0.010449592
251	0x12	0.014468666
252	0x18	0.019291556
253	0xfd	-0.0024114444
254	0x05	0.004019074
255	0x0a	0.008038148

MatMul_1 i1 [112, 112] scale=0.0011766527 zero_point=0
0	0xfa	-0.0070599164
1	0xd4	-0.05177272
2	0xbe	-0.07765908
3	0x40	0.075305775
4	0x1f	0.036476236
5	0x40	0.075305775
6	0x40	0.075305775
7	0x2d	0.052949373
8	0x1f	0.036476236
9	0x31	0.057655983
10	0x41	0.07648243
11	0x28	0.047066107
12	0x26	0.044712804
13	0x3d	0.07177582
14	0x3b	0.06942251
15	0xcd	-0.06000929
16	0x0e	0.016473139
17	0x48	0.084718995
18	0xe3	-0.03412293
19	0xd6	-0.049419414
20	0x3c	0.07059916
21	0xc4	-0.07059916
22	0xec	-0.023533054
23	0x30	0.05647933
24	0x06	0.0070599164
25	0x2a	0.049419414
26	0xc0	-0.075305775
27	0x45	0.08118904
28	0xf0	-0.018826444
29	0xc3	-0.07177582
30	0xf3	-0.015296485
31	0x4a	0.087072305
32	0x1e	0.03529958
33	0xbd	-0.07883573
34	0x30	0.05647933
35	0xd2	-0.054126024
36	0x3e	0.07295247
37	0xdf	-0.03882954
38	0x10	0.018826444
39	0xf1	-0.01764979
40	0xd6	-0.049419414
41	0xc9	-0.0647159
42	0xc3	-0.07177582
43	0xc4	-0.07059916
44	0xd8	-0.047066107
45	0x15	0.024709707
46	0x40	0.075305775
47	0xc2	-0.07295247
48	0x24	0.042359497
49	0x40	0.075305775
50	0xc3	-0.07177582
51	0xab	-0.100015484
52	0xbf	-0.07648243
53	0x09	0.010589874
54	0x48	0.084718995
55	0x37	0.0647159
56	0x4b	0.08824895
57	0x33	0.06000929
58	0xe6	-0.03059297
59	0xf7	-0.010589874
60	0xfa	-0.0070599164
61	0x1b	0.031769622
62	0x23	0.041182846
63	0x3f	0.07412912
64	0x22	0.040006194
65	0x0e	0.016473139
66	0x22	0.040006194
67	0x07	0.008236569
68	0x2f	0.05530268
69	0xc8	-0.065892555
70	0xe4	-0.032946277
71	0xfb	-0.0058832634
72	0x30	0.05647933
73	0x44	0.08001239
74	0xe7	-0.029416319
75	0xe3	-0.03412293
76	0x05	0.0058832634
77	0x02	0.0023533055
78	0x34	0.06118594
79	0x3a	0.06824586
80	0xf3	-0.015296485
81	0xc9	-0.0647159
82	0x2c	0.05177272
83	0x16	0.02588636
84	0xbe	-0.07765908
85	0xf7	-0.010589874
86	0xc2	-0.07295247
87	0xe8	-0.028239666
88	0x20	0.037652887
89	0x37	0.0647159
90	0x4a	0.087072305
91	0xa8	-0.10354544
92	0x15	0.024709707
93	0xda	-0.044712804
94	0xc0	-0.075305775
95	0x40	0.075305775
96	0x39	0.0670692
97	0x37	0.0647159
98	0x02	0.0023533055
99	0x3a	0.06824586
100	0x22	0.040006194
101	0xea	-0.02588636
102	0x23	0.041182846
103	0x08	0.009413222
104	0x11	0.020003097
105	0xe2	-0.03529958
106	0x11	0.020003097
107	0x0c	0.014119833
108	0x2e	0.054126024
109	0xac	-0.09883883
110	0x0b	0.01294318
111	0x2f	0.05530268
112	0x49	0.08589565
113	0xeb	-0.024709707
114	0x33	0.06000929
115	0xd3	-0.052949373
116	0x0b	0.01294318
117	0x27	0.045889456
118	0xae	-0.096485525
119	0xf8	-0.009413222
120	0xc9	-0.0647159
121	0x29	0.048242763
122	0x41	0.07648243
123	0x49	0.08589565
124	0xf3	-0.015296485
125	0xef	-0.020003097
126	0x11	0.020003097
127	0xd8	-0.047066107
128	0x0c	0.014119833
129	0x2b	0.050596066
130	0xbc	-0.08001239
131	0xe2	-0.03529958
132	0x3a	0.06824586
133	0x1e	0.03529958
134	0x2b	0.050596066
135	0xca	-0.063539244
136	0x3b	0.06942251
137	0xdd	-0.041182846
138	0x9b	-0.118841924
139	0x2d	0.052949373
140	0xdb	-0.043536153
141	0x1c	0.032946277
142	0x31	0.057655983
143	0xd7	-0.048242763
144	0x17	0.027063012
145	0xff	-0.0011766527
146	0x3f	0.07412912
147	0xba	-0.08236569
148	0x11	0.020003097
149	0xee	-0.021179749
150	0xbd	-0.07883573
151	0x29	0.048242763
152	0xfe	-0.0023533055
153	0xce	-0.058832638
154	0xcc	-0.06118594
155	0xfa	-0.0070599164
156	0x3c	0.07059916
157	0xb1	-0.09295557
158	0xee	-0.021179749
159	0xb1	-0.09295557
160	0x1a	0.03059297
161	0xd0	-0.05647933
162	0x30	0.05647933
163	0xec	-0.023533054
164	0x0e	0.016473139
165	0x48	0.084718995
166	0x2b	0.050596066
167	0xcc	-0.06118594
168	0x4d	0.090602264
169	0x42	0.07765908
170	0xcc	-0.06118594
171	0x47	0.08354235
172	0xfe	-0.0023533055
173	0x39	0.0670692
174	0xf2	-0.016473139
175	0x0f	0.01764979
176	0x4a	0.087072305
177	0xef	-0.020003097
178	0x3e	0.07295247
179	0xbe	-0.07765908
180	0xff	-0.0011766527
181	0x24	0.042359497
182	0x3c	0.07059916
183	0xde	-0.040006194
184	0x46	0.08236569
185	0x15	0.024709707
186	0x36	0.063539244
187	0xba	-0.08236569
188	0xed	-0.022356402
189	0x2b	0.050596066
190	0x41	0.07648243
191	0x26	0.044712804
192	0x31	0.057655983
193	0x09	0.010589874
194	0xbc	-0.08001239
195	0xd3	-0.052949373
196	0x3d	0.07177582
197	0x0e	0.016473139
198	0xb8	-0.084718995
199	0x13	0.022356402
200	0xe3	-0.03412293
201	0x2c	0.05177272
202	0x1c	0.032946277
203	0xfb	-0.0058832634
204	0xf9	-0.008236569
205	0xe0	-0.037652887
206	0xc6	-0.06824586
207	0x00	0.0
208	0x16	0.02588636
209	0xec	-0.023533054
210	0xfc	-0.004706611
211	0x3a	0.06824586
212	0x40	0.075305775
213	0x0d	0.015296485
214	0xd2	-0.054126024
215	0xb9	-0.08354235
216	0x13	0.022356402
217	0x4b	0.08824895
218	0x1a	0.03059297
219	0xfe	-0.0023533055
220	0x29	0.048242763
221	0xf5	-0.01294318
222	0xf6	-0.011766527
223	0xb7	-0.08589565
224	0x52	0.096485525
225	0xec	-0.023533054
226	0x31	0.057655983
227	0xe8	-0.028239666
228	0x32	0.058832638
229	0x40	0.075305775
230	0xcd	-0.06000929
231	0xfa	-0.0070599164
232	0x21	0.03882954
233	0x40	0.075305775
234	0xd4	-0.05177272
235	0xd6	-0.049419414
236	0x4e	0.09177891
237	0x2e	0.054126024
238	0x26	0.044712804
239	0xc6	-0.06824586
240	0xc3	-0.07177582
241	0x17	0.027063012
242	0xc1	-0.07412912
243	0x45	0.08118904
244	0xf0	-0.018826444
245	0x3a	0.06824586
246	0xcb	-0.062362596
247	0xfc	-0.004706611
248	0xf0	-0.018826444
249	0xe0	-0.037652887
250	0x32	0.058832638
251	0x28	0.047066107
252	0x25	0.043536153
253	0xd7	-0.048242763
254	0x51	0.09530887
255	0x48	0.084718995

MatMul_2 i1 [112, 112] scale=0.0011404096 zero_point=0
0	0xef	-0.019386964
1	0x09	0.010263687
2	0xcf	-0.05588007
3	0x4b	0.08553072
4	0xe2	-0.034212288
5	0xd4	-0.05017802
6	0x06	0.0068424577
7	0x1f	0.0353527
8	0x10	0.018246554
9	0xe6	-0.02965065
10	0x1e	0.034212288
11	0x24	0.041054748
12	0x22	0.038773928
13	0xd5	-0.049037613
14	0xee	-0.020527374
15	0x06	0.0068424577
16	0x2e	0.05245884
17	0xbe	-0.07526703
18	0xe6	-0.02965065
19	0x4b	0.08553072
20	0xe6	-0.02965065
21	0xbc	-0.077547856
22	0x4a	0.08439031
23	0x50	0.09123277
24	0xd3	-0.051318433
25	0xd8	-0.045616385
26	0xb5	-0.08553072
27	0xcd	-0.05816089
28	0xc0	-0.072986215
29	0x1b	0.03079106
30	0xcb	-0.06044171
31	0x0b	0.012544505
32	0xcb	-0.06044171
33	0x1c	0.031931467
34	0x00	0.0
35	0x3e	0.0707054
36	0x40	0.072986215
37	0x14	0.022808192
38	0xf5	-0.012544505
39	0x33	0.05816089
40	0x9f	-0.11061973
41	0xbb	-0.078688264
42	0xd2	-0.05245884
43	0x14	0.022808192
44	0x33	0.05816089
45	0xc6	-0.06614376
46	0xf4	-0.013684915
47	0xbb	-0.078688264
48	0x1e	0.034212288
49	0xb5	-0.08553072
50	0x03	0.0034212288
51	0x1c	0.031931467
52	0x22	0.038773928
53	0xcc	-0.0593013
54	0xfc	-0.0045616385
55	0x2f	0.053599253
56	0xa6	-0.102636866
57	0x29	0.046756793
58	0x3d	0.06956498
59	0x0b	0.012544505
60	0xff	-0.0011404096
61	0x07	0.007982867
62	0xf1	-0.017106144
63	0xab	-0.09693482
64	0xe5	-0.03079106
65	0x2a	0.047897205
66	0x46	0.07982867
67	0xbd	-0.07640745
68	0xb7	-0.083249904
69	0x06	0.0068424577
70	0xf5	-0.012544505
71	0xa3	-0.10605809
72	0x20	0.036493108
73	0xbc	-0.077547856
74	0x16	0.02508901
75	0xfc	-0.0045616385
76	0x0a	0.011404096
77	0xb8	-0.082109496
78	0x12	0.020527374
79	0x4e	0.08895195
80	0x26	0.043335564
81	0xee	-0.020527374
82	0x0f	0.017106144
83	0x10	0.018246554
84	0x31	0.05588007
85	0x32	0.05702048
86	0xfa	-0.0068424577
87	0x41	0.07412662
88	0x41	0.07412662
89	0x10	0.018246554
90	0xed	-0.021667782
91	0x0d	0.014825325
92	0x33	0.05816089
93	0x37	0.06272253
94	0x3a	0.06614376
95	0x40	0.072986215
96	0x04	0.0045616385
97	0xfd	-0.0034212288
98	0x1a	0.02965065
99	0xb7	-0.083249904
100	0x22	0.038773928
101	0xbb	-0.078688264
102	0x37	0.06272253
103	0xf7	-0.010263687
104	0xd1	-0.053599253
105	0x33	0.05816089
106	0x49	0.083249904
107	0x36	0.06158212
108	0xba	-0.07982867
109	0x3b	0.06728417
110	0xbc	-0.077547856
111	0xcd	-0.05816089
112	0x11	0.019386964
113	0x27	0.044475976
114	0x11	0.019386964
115	0xd2	-0.05245884
116	0x24	0.041054748
117	0x2f	0.053599253
118	0xfc	-0.0045616385
119	0xf1	-0.017106144
120	0xf3	-0.014825325
121	0x43	0.07640745
122	0x52	0.093513586
123	0x4e	0.08895195
124	0xea	-0.02508901
125	0x3e	0.0707054
126	0xd1	-0.053599253
127	0xd2	-0.05245884
128	0x20	0.036493108
129	0xd5	-0.049037613
130	0xbd	-0.07640745
131	0xa8	-0.10035604
132	0x13	0.021667782
133	0xf5	-0.012544505
134	0x04	0.0045616385
135	0xb5	-0.08553072
136	0xfd	-0.0034212288
137	0x4f	0.09009236
138	0x03	0.0034212288
139	0x15	0.023948602
140	0x06	0.0068424577
141	0xcb	-0.06044171
142	0x15	0.023948602
143	0xc6	-0.06614376
144	0xca	-0.06158212
145	0x12	0.020527374
146	0xd3	-0.051318433
147	0x28	0.045616385
148	0xda	-0.043335564
149	0xf7	-0.010263687
150	0x41	0.07412662
151	0x50	0.09123277
152	0xec	-0.022808192
153	0xbc	-0.077547856
154	0x0f	0.017106144
155	0xde	-0.038773928
156	0xe4	-0.031931467
157	0x29	0.046756793
158	0xc4	-0.068424575
159	0xcd	-0.05816089
160	0xf7	-0.010263687
161	0xf6	-0.011404096
162	0xba	-0.07982867
163	0xe4	-0.031931467
164	0xdc	-0.041054748
165	0x02	0.0022808192
166	0xe3	-0.03307188
167	0x20	0.036493108
168	0xe5	-0.03079106
169	0xc3	-0.06956498
170	0x0f	0.017106144
171	0x38	0.063862935
172	0xca	-0.06158212
173	0xee	-0.020527374
174	0x00	0.0
175	0xfb	-0.005702048
176	0x2c	0.05017802
177	0x4a	0.08439031
178	0xd0	-0.05473966
179	0x4e	0.08895195
180	0xed	-0.021667782
181	0x41	0.07412662
182	0x3e	0.0707054
183	0xce	-0.05702048
184	0x11	0.019386964
185	0x16	0.02508901
186	0x1a	0.02965065
187	0x21	0.037633516
188	0xe8	-0.02736983
189	0xfb	-0.005702048
190	0x31	0.05588007
191	0x16	0.02508901
192	0xe2	-0.034212288
193	0xb6	-0.08439031
194	0xe1	-0.0353527
195	0x44	0.077547856
196	0xe5	-0.03079106
197	0xb7	-0.083249904
198	0x1b	0.03079106
199	0xf4	-0.013684915
200	0x36	0.06158212
201	0xcc	-0.0593013
202	0x27	0.044475976
203	0x4b	0.08553072
204	0xd8	-0.045616385
205	0x3f	0.07184581
206	0xcc	-0.0593013
207	0x45	0.078688264
208	0xda	-0.043335564
209	0x27	0.044475976
210	0xbb	-0.078688264
211	0xce	-0.05702048
212	0x03	0.0034212288
213	0x46	0.07982867
214	0xa7	-0.10149646
215	0xfd	-0.0034212288
216	0x29	0.046756793
217	0x1f	0.0353527
218	0xef	-0.019386964
219	0x42	0.07526703
220	0x23	0.039914336
221	0x20	0.036493108
222	0x0a	0.011404096
223	0x0c	0.013684915
224	0xb0	-0.09123277
225	0x19	0.02851024
226	0x1b	0.03079106
227	0xe6	-0.02965065
228	0x0a	0.011404096
229	0x21	0.037633516
230	0xc1	-0.07184581
231	0x07	0.007982867
232	0x39	0.06500335
233	0x07	0.007982867
234	0x19	0.02851024
235	0x3e	0.0707054
236	0x1d	0.03307188
237	0xba	-0.07982867
238	0x16	0.02508901
239	0x16	0.02508901
240	0xf2	-0.015965734
241	0x98	-0.1186026
242	0x28	0.045616385
243	0xf3	-0.014825325
244	0x44	0.077547856
245	0x1c	0.031931467
246	0xdd	-0.039914336
247	0x91	-0.12658547
248	0x1f	0.0353527
249	0xf5	-0.012544505
250	0x15	0.023948602
251	0xd8	-0.045616385
252	0x27	0.044475976
253	0x9d	-0.112900555
254	0x03	0.0034212288
255	0x3e	0.0707054

MatMul_3 f4 [1, 112]
0	0x3c3a2d52	0.011363344
1	0xbde8f917	-0.11375635
2	0xbe09daab	-0.13462321
3	0x3d8b8227	0.06811934
4	0x3d775d97	0.06039199
5	0x3e24d571	0.16097046
6	0x3dcc6461	0.09980083
7	0xbce9f1df	-0.028557716
8	0xbe3c0bbb	-0.1836385
9	0xbe33c16f	-0.17554258
10	0x3d6b97b0	0.057517707
11	0x3ddbc55d	0.107310034
12	0x3d401762	0.0468973
13	0xbe286e90	-0.16448426
14	0x3e06bffb	0.13159172
15	0xbbdf94ca	-0.006823157
16	0x3c524e83	0.012836101
17	0x3db119d3	0.08647504
18	0xbc8b9291	-0.017037662
19	0x3e1f2c09	0.15544142
20	0x3a17a96f	0.00057854404
21	0x3d1f6d2d	0.038922478
22	0xbe0dd217	-0.13849674
23	0xbe074422	-0.13209584
24	0x3c4c4227	0.012466944
25	0x3dab3537	0.08359759
26	0x3da7becd	0.08190689
27	0xbe1d0105	-0.1533242
28	0x3dd0bfaa	0.10192807
29	0x3ded05d8	0.1157338
30	0xbe0f0d03	-0.13969807
31	0xbc19273c	-0.009347733
32	0x3d25be86	0.0404649
33	0x3d92db6f	0.0717076
34	0xbe3b9ca7	-0.18321477
35	0x3de162ed	0.11005197
36	0xbb87f8f3	-0.00414955
37	0xbd207ab5	-0.039179523
38	0x3e039d33	0.12852935
39	0xbcc2dee1	-0.023787918
40	0xbce2931a	-0.027658034
41	0x3dad58f2	0.084642306
42	0x3e0da136	0.13831028
43	0xbde8d50d	-0.11368761
44	0xbcbc10d2	-0.02295724
45	0xbd4a4a88	-0.049387485
46	0xbe24a4a8	-0.16078436
47	0x3de598ba	0.11210771
48	0xbe15d895	-0.146334
49	0xbddabe17	-0.10680788
50	0x3bab5364	0.005228447
51	0x3c7aabca	0.015299747
52	0xbd6714b3	-0.056416225
53	0xbc824d1b	-0.015905907
54	0xbce1d78f	-0.027568607
55	0x3d816b15	0.063192524
56	0xbc7d2da5	-0.015452777
57	0x3e09dca7	0.13463078
58	0xbd7b80da	-0.06140218
59	0x3d8d923b	0.06912657
60	0x3d800fd0	0.06253016
61	0xbe0ca269	-0.1373383
62	0xbd4eebf5	-0.050517995
63	0xbdd4db83	-0.10393431
64	0xbe10ab25	-0.14127786
65	0x3d14d207	0.03633311
66	0x3db9cd89	0.09072406
67	0x3e090a40	0.13382816
68	0x3e2b03e1	0.16700698
69	0x3cf99b9b	0.030469706
70	0xbe05b333	-0.1305664
71	0xbcb2c7f7	-0.021823866
72	0x3dd13a15	0.102161564
73	0xbe0a31ff	-0.13495634
74	0xbe012832	-0.1261299
75	0xbd036fbd	-0.032088984
76	0x3e212f38	0.15740669
77	0x3dbf7493	0.09348407
78	0x39d9ebda	0.00041565188
79	0xbdc09f87	-0.094054274
80	0xbcf28662	-0.029605094
81	0xbd458d64	-0.048230544
82	0x3c81ba9a	0.015836049
83	0x3df68942	0.120378986
84	0xbe3c427c	-0.18384737
85	0x3e1c35b7	0.15254866
86	0x3dce68cf	0.100785844
87	0x3cca83d4	0.024721064
88	0x3e0af8b8	0.13571441
89	0x3de2c3cd	0.11072502
90	0xbd51c3b3	-0.051212024
91	0x3d736148	0.059418947
92	0xbdfbd257	-0.122959785
93	0xbe0997ae	-0.13436767
94	0x3e0d8c88	0.1382314
95	0xbe19dfaf	-0.15026735
96	0x3d83958d	0.06425009
97	0xbe0fc57a	-0.14040175
98	0x3d005ee3	0.03134049
99	0xbe0f7f51	-0.14013411
100	0xbde4ad7a	-0.111659005
101	0x3d51851b	0.05115233
102	0x3e49dea5	0.19713838
103	0x3e1af282	0.15131572
104	0xbdfd469d	-0.12366984
105	0x3d955622	0.07291819
106	0x3e010bc2	0.12602141
107	0x3e013fc3	0.1262198
108	0xbddf42ea	-0.10901435
109	0x3db35df7	0.08758157
110	0xbdf031e7	-0.11728268
111	0x3d742e2a	0.059614338
