hey_meg.tflite (tflite, 60872 bytes, 18 tensors)

tfl.pseudo_qconst1 i1 [1, 1088] scale=0.001217553 zero_point=0
000000 e4 fd 2a cf 07 e6 99 bc 0b 06 22 bd f9 9f cf b8
       -0.034091484 -0.0036526592 0.051137228 -0.0596601 0.008522871 -0.03165638 -0.12540796 -0.08279361 0.013393084 0.0073053185 0.041396804 -0.08157606 -0.008522871 -0.11810265 -0.0596601 -0.08766382
000010 d1 ba 9b fb 32 cd ca d3 a6 34 09 92 c6 94 53 bc
       -0.057224993 -0.08522871 -0.12297286 -0.006087765 0.06087765 -0.062095206 -0.065747865 -0.054789886 -0.10957977 0.06331276 0.010957978 -0.13393083 -0.07061808 -0.13149573 0.1010569 -0.08279361
000020 1b a8 cb a6 e9 d6 f0 d8 d7 b8 d4 20 be d5 bb 46
       0.032873932 -0.10714467 -0.06453031 -0.10957977 -0.02800372 -0.051137228 -0.019480849 -0.04870212 -0.049919676 -0.08766382 -0.053572334 0.038961697 -0.0803585 -0.05235478 -0.08401116 0.08522871
000030 eb 9d 08 5a c6 17 01 14 f4 2c ca a8 b2 33 17 0d
       -0.025568614 -0.12053775 0.009740424 0.10957977 -0.07061808 0.02800372 0.001217553 0.02435106 -0.014610637 0.053572334 -0.065747865 -0.10714467 -0.09496914 0.062095206 0.02800372 0.01582819
000040 f0 9e f5 e7 5a de a7 fb ba af 09 bb e5 ab 22 d3
       -0.019480849 -0.1193202 -0.013393084 -0.030438825 0.10957977 -0.041396804 -0.10836222 -0.006087765 -0.08522871 -0.09862179 0.010957978 -0.08401116 -0.032873932 -0.10349201 0.041396804 -0.054789886
000050 de be c8 9c 57 e2 e6 25 d4 04 0f e8 1f ba 49 03
       -0.041396804 -0.0803585 -0.06818297 -0.1217553 0.10592712 -0.03652659 -0.03165638 0.045049462 -0.053572334 0.004870212 0.018263295 -0.029221274 0.037744146 -0.08522871 0.08888137 0.0036526592
000060 1f a0 bf de c1 09 f7 bf fd b3 df f6 ee 33 d8 05
       0.037744146 -0.116885096 -0.079140946 -0.041396804 -0.07670584 0.010957978 -0.010957978 -0.079140946 -0.0036526592 -0.09375159 -0.04017925 -0.01217553 -0.021915955 0.062095206 -0.04870212 0.006087765
000070 e9 c8 3b 2d 8d 25 e4 f4 06 da d3 ec 08 37 08 c2
       -0.02800372 -0.06818297 0.07183563 0.054789886 -0.1400186 0.045049462 -0.034091484 -0.014610637 0.0073053185 -0.046267014 -0.054789886 -0.02435106 0.009740424 0.066965416 0.009740424 -0.07548829
000080 c0 e1 31 03 28 9f b8 d7 f3 de fc a6 e7 f6 e6 d6
       -0.077923395 -0.037744146 0.0596601 0.0036526592 0.04870212 -0.11810265 -0.08766382 -0.049919676 -0.01582819 -0.041396804 -0.004870212 -0.10957977 -0.030438825 -0.01217553 -0.03165638 -0.051137228
000090 13 a8 fd ce 4b 04 bf ae ff 0f c8 fa 2e a2 3f b0
       0.023133507 -0.10714467 -0.0036526592 -0.06087765 0.09131648 0.004870212 -0.079140946 -0.09983935 -0.001217553 0.018263295 -0.06818297 -0.0073053185 0.05600744 -0.114449985 0.07670584 -0.09740424
0000a0 0e f5 c4 0b a2 20 39 e0 ac e6 24 e8 cd ee 10 22
       0.017045742 -0.013393084 -0.07305318 0.013393084 -0.114449985 0.038961697 0.06940053 -0.038961697 -0.102274455 -0.03165638 0.04383191 -0.029221274 -0.062095206 -0.021915955 0.019480849 0.041396804
0000b0 fe e5 29 5a cf 1f 1d 04 ff 1c 13 97 db 2a d4 b9
       -0.002435106 -0.032873932 0.049919676 0.10957977 -0.0596601 0.037744146 0.03530904 0.004870212 -0.001217553 0.034091484 0.023133507 -0.12784307 -0.045049462 0.051137228 -0.053572334 -0.08644626
0000c0 04 ce e1 3e f3 bf db d4 b1 1c cf af e3 f2 f3 e8
       0.004870212 -0.06087765 -0.037744146 0.07548829 -0.01582819 -0.079140946 -0.045049462 -0.053572334 -0.09618669 0.034091484 -0.0596601 -0.09862179 -0.03530904 -0.017045742 -0.01582819 -0.029221274
0000d0 06 b0 0f af e5 bf ed 9c a8 2d 01 b1 d7 d4 f8 d0
       0.0073053185 -0.09740424 0.018263295 -0.09862179 -0.032873932 -0.079140946 -0.023133507 -0.1217553 -0.10714467 0.054789886 0.001217553 -0.09618669 -0.049919676 -0.053572334 -0.009740424 -0.058442548
0000e0 2a b4 1c 97 f5 44 45 01 a6 d5 1c f2 12 e7 ea 30
       0.051137228 -0.09253403 0.034091484 -0.12784307 -0.013393084 0.08279361 0.08401116 0.001217553 -0.10957977 -0.05235478 0.034091484 -0.017045742 0.021915955 -0.030438825 -0.026786167 0.058442548
0000f0 bc ad 06 2e b8 db 25 f3 dc 13 b0 a9 c0 25 d1 b7
       -0.08279361 -0.1010569 0.0073053185 0.05600744 -0.08766382 -0.045049462 0.045049462 -0.01582819 -0.04383191 0.023133507 -0.09740424 -0.10592712 -0.077923395 0.045049462 -0.057224993 -0.08888137

tfl.pseudo_qconst3 i1 [64, 1, 1, 64]
000000 0d bb 2e e5 06 d4 dd b0 21 7f c6 ce f2 35 cb 0d
       13 -69 46 -27 6 -44 -35 -80 33 127 -58 -50 -14 53 -53 13
000010 07 10 c1 07 d4 f6 31 dc d3 13 da 3a fe e3 c4 fd
       7 16 -63 7 -44 -10 49 -36 -45 19 -38 58 -2 -29 -60 -3
000020 cd 6a 33 e3 08 d0 2b 14 1c c3 2e 17 d3 c0 af 22
       -51 106 51 -29 8 -48 43 20 28 -61 46 23 -45 -64 -81 34
000030 f0 c9 fb e3 a7 f2 fd d2 1c 31 48 f4 21 05 f4 e3
       -16 -55 -5 -29 -89 -14 -3 -46 28 49 72 -12 33 5 -12 -29
000040 db cc 25 ee 4a b1 b4 e4 29 4b ff b5 33 b7 3b f0
       -37 -52 37 -18 74 -79 -76 -28 41 75 -1 -75 51 -73 59 -16
000050 17 c3 52 3e 39 39 f5 31 50 2a 46 57 d6 60 e6 c8
       23 -61 82 62 57 57 -11 49 80 42 70 87 -42 96 -26 -56
000060 34 02 d7 a5 c4 a7 70 b5 06 00 e9 18 35 ef cc ec
       52 2 -41 -91 -60 -89 112 -75 6 0 -23 24 53 -17 -52 -20
000070 b9 bd 4a 49 36 7f fb 55 9a 57 fd b9 37 44 18 63
       -71 -67 74 73 54 127 -5 85 -102 87 -3 -71 55 68 24 99
000080 e9 b2 dc aa 45 dd 52 30 05 fb c9 bf 98 dc 20 b6
       -23 -78 -36 -86 69 -35 82 48 5 -5 -55 -65 -104 -36 32 -74
000090 b6 fd ab 55 62 a6 fd 6c 33 f1 31 3a 30 97 21 0a
       -74 -3 -85 85 98 -90 -3 108 51 -15 49 58 48 -105 33 10
0000a0 de 2c 12 b2 c2 eb d5 16 bb 05 b9 55 22 4d 05 ad
       -34 44 18 -78 -62 -21 -43 22 -69 5 -71 85 34 77 5 -83
0000b0 81 42 11 31 f9 18 2e 2f e9 6b af c4 19 12 bd 48
       -127 66 17 49 -7 24 46 47 -23 107 -81 -60 25 18 -67 72
0000c0 0f d9 0a 49 db e6 bb 19 81 4d 14 4d 34 25 fe c8
       15 -39 10 73 -37 -26 -69 25 -127 77 20 77 52 37 -2 -56
0000d0 0c c7 22 06 23 19 9f b5 62 b3 35 a9 c5 37 fd 0a
       12 -57 34 6 35 25 -97 -75 98 -77 53 -87 -59 55 -3 10
0000e0 c3 b8 a8 c5 3d 4e 65 2c 1a b4 ca a4 48 b3 ec 58
       -61 -72 -88 -59 61 78 101 44 26 -76 -54 -92 72 -77 -20 88
0000f0 4b 8c f2 10 32 a5 2f ce ce c9 1d e2 41 51 85 d2
       75 -116 -14 16 50 -91 47 -50 -50 -55 29 -30 65 81 -123 -46

tfl.pseudo_qconst5 i1 [1, 23, 1, 64]
000000 b4 3d 81 26 9f d3 e7 34 f9 d8 7f fa 7f e3 ca e2
       -76 61 -127 38 -97 -45 -25 52 -7 -40 127 -6 127 -29 -54 -30
000010 75 07 d9 de 68 04 2a e7 07 15 e5 99 7f fc d5 f0
       117 7 -39 -34 104 4 42 -25 7 21 -27 -103 127 -4 -43 -16
000020 b5 e7 99 ce d1 62 81 1f e9 17 d9 d8 4c 1d 7f 39
       -75 -25 -103 -50 -47 98 -127 31 -23 23 -39 -40 76 29 127 57
000030 1e aa 3a 1c 1f cf 28 7f fc 11 e9 81 fb 66 ab c1
       30 -86 58 28 31 -49 40 127 -4 17 -23 -127 -5 102 -85 -63
000040 a8 2c 98 2c e5 35 e4 09 e9 cc cb 15 2d fc 99 0f
       -88 44 -104 44 -27 53 -28 9 -23 -52 -53 21 45 -4 -103 15
000050 49 58 bf e6 23 f1 3b 44 dc 01 1a a7 00 d5 ee 9a
       73 88 -65 -26 35 -15 59 68 -36 1 26 -89 0 -43 -18 -102
000060 d3 3a b0 94 fa 7f a4 4a a9 99 be c0 19 f9 74 2b
       -45 58 -80 -108 -6 127 -92 74 -87 -103 -66 -64 25 -7 116 43
000070 e2 9d ed d0 2a e7 02 70 f9 23 bb bf 81 17 b8 eb
       -30 -99 -19 -48 42 -25 2 112 -7 35 -69 -65 -127 23 -72 -21
000080 8e 7f e1 00 81 de cf f9 cf bb af 3e 54 ea ee e3
       -114 127 -31 0 -127 -34 -49 -7 -49 -69 -81 62 84 -22 -18 -29
000090 0b 3b bd f6 66 d7 c7 12 f0 9d f9 d7 0b 3a 48 81
       11 59 -67 -10 102 -41 -57 18 -16 -99 -7 -41 11 58 72 -127
0000a0 da 09 d7 89 d8 34 d6 2f bd b7 c2 96 35 34 29 f4
       -38 9 -41 -119 -40 52 -42 47 -67 -73 -62 -106 53 52 41 -12
0000b0 f2 84 48 49 61 e6 43 5e f7 24 b4 11 13 0a d3 f2
       -14 -124 72 73 97 -26 67 94 -9 36 -76 17 19 10 -45 -14
0000c0 bf 49 cc 7c e6 f6 cd 20 cc ef ba 0a ff e4 bd 28
       -65 73 -52 124 -26 -10 -51 32 -52 -17 -70 10 -1 -28 -67 40
0000d0 fd 00 a6 02 fd 08 2c 4a 36 93 33 e1 1f d7 15 e1
       -3 0 -90 2 -3 8 44 74 54 -109 51 -31 31 -41 21 -31
0000e0 0f cd f7 e0 f6 01 de 46 0f fa e6 81 6c fd f1 2c
       15 -51 -9 -32 -10 1 -34 70 15 -6 -26 -127 108 -3 -15 44
0000f0 04 a8 1f 74 5e 0e fc 40 16 6d d4 1e 5c c7 be c0
       4 -88 31 116 94 14 -4 64 22 109 -44 30 92 -57 -66 -64

tfl.pseudo_qconst7 i1 [64, 1, 1, 64]
000000 30 a6 f0 30 2c 11 18 b4 f9 ca 05 dc f0 e2 1f 06
       48 -90 -16 48 44 17 24 -76 -7 -54 5 -36 -16 -30 31 6
000010 0c 0c 18 4e 28 a2 dd f4 c9 63 28 f2 05 3b eb c6
       12 12 24 78 40 -94 -35 -12 -55 99 40 -14 5 59 -21 -58
000020 20 19 5f 14 ed fd fa 37 4f 38 bb 00 16 35 31 c7
       32 25 95 20 -19 -3 -6 55 79 56 -69 0 22 53 49 -57
000030 17 d1 27 7f fc 9f 13 39 22 e6 e0 c7 10 e8 e1 34
       23 -47 39 127 -4 -97 19 57 34 -26 -32 -57 16 -24 -31 52
000040 f4 e1 3e 13 44 f9 4e d5 cd 64 bc 21 f3 52 d2 fd
       -12 -31 62 19 68 -7 78 -43 -51 100 -68 33 -13 82 -46 -3
000050 44 62 59 20 cb 88 c4 23 c5 ba 2c ad 55 58 1d 0f
       68 98 89 32 -53 -120 -60 35 -59 -70 44 -83 85 88 29 15
000060 74 0c 0b 33 05 76 09 0c 63 68 07 1a df 52 7f 26
       116 12 11 51 5 118 9 12 99 104 7 26 -33 82 127 38
000070 55 49 70 bb 35 ae 39 3f d9 10 67 11 96 ec 34 a7
       85 73 112 -69 53 -82 57 63 -39 16 103 17 -106 -20 52 -89
000080 d2 fe 04 4b fd 46 1e f9 f7 d1 2e 4a c4 e5 15 c0
       -46 -2 4 75 -3 70 30 -7 -9 -47 46 74 -60 -27 21 -64
000090 f5 f1 c4 1b 29 1c 2c 06 d2 4d 2a ed 02 e4 f9 dd
       -11 -15 -60 27 41 28 44 6 -46 77 42 -19 2 -28 -7 -35
0000a0 1c e2 0e cb 51 33 37 0c 35 13 81 e2 3f f6 0f 3f
       28 -30 14 -53 81 51 55 12 53 19 -127 -30 63 -10 15 63
0000b0 07 2e f9 4f e0 df d0 09 18 e0 0d 1e 1f b2 0f 0f
       7 46 -7 79 -32 -33 -48 9 24 -32 13 30 31 -78 15 15
0000c0 21 99 fd e0 2d ce 37 21 08 4b 5a 23 37 f4 f5 e9
       33 -103 -3 -32 45 -50 55 33 8 75 90 35 55 -12 -11 -23
0000d0 f5 57 a9 fa dd f6 38 31 32 e8 d2 c0 94 08 b3 81
       -11 87 -87 -6 -35 -10 56 49 50 -24 -46 -64 -108 8 -77 -127
0000e0 a0 29 66 1b ee 55 fc 9f 01 41 2a b9 fe 3f a1 44
       -96 41 102 27 -18 85 -4 -97 1 65 42 -71 -2 63 -95 68
0000f0 c0 f7 a6 02 fc e4 bd bc fd 70 f6 ef 4d 03 61 04
       -64 -9 -90 2 -4 -28 -67 -68 -3 112 -10 -17 77 3 97 4

tfl.pseudo_qconst9 i1 [1, 15, 1, 32]
000000 df f3 7f f9 ef 7a da df 8a d7 9a 60 d9 0d 30 e5
       -33 -13 127 -7 -17 122 -38 -33 -118 -41 -102 96 -39 13 48 -27
000010 81 0b b2 7f 07 86 dd 81 26 f6 fa 15 7c 62 08 f5
       -127 11 -78 127 7 -122 -35 -127 38 -10 -6 21 124 98 8 -11
000020 af e4 e4 00 45 33 8a 24 d9 c3 d5 e5 9c 4e d5 ef
       -81 -28 -28 0 69 51 -118 36 -39 -61 -43 -27 -100 78 -43 -17
000030 c4 91 fa 45 93 04 fc c6 c5 75 9e 7f 22 7f 46 7f
       -60 -111 -6 69 -109 4 -4 -58 -59 117 -98 127 34 127 70 127
000040 43 ed fc dd 44 04 07 dd 81 dd ff e3 de a3 d8 07
       67 -19 -4 -35 68 4 7 -35 -127 -35 -1 -29 -34 -93 -40 7
000050 8f 36 34 58 d0 c4 55 1a c5 7f e7 4c 05 2d 2f 31
       -113 54 52 88 -48 -60 85 26 -59 127 -25 76 5 45 47 49
000060 d3 43 67 e5 36 fb a2 ae 92 dc 1b d0 97 88 81 41
       -45 67 103 -27 54 -5 -94 -82 -110 -36 27 -48 -105 -120 -127 65
000070 ee 47 0f 61 b5 ce 10 21 03 3b ae 3c 14 f9 45 ea
       -18 71 15 97 -75 -50 16 33 3 59 -82 60 20 -7 69 -22
000080 27 40 46 07 d4 d4 8d 81 09 02 95 1e ce ab 3c ce
       39 64 70 7 -44 -44 -115 -127 9 2 -107 30 -50 -85 60 -50
000090 98 06 d8 47 ee 81 81 72 23 45 fe 9c d8 4b 1b 41
       -104 6 -40 71 -18 -127 -127 114 35 69 -2 -100 -40 75 27 65
0000a0 9c fb 7a 4d b4 ff 85 bc 68 98 05 17 28 33 b3 7f
       -100 -5 122 77 -76 -1 -123 -68 104 -104 5 23 40 51 -77 127
0000b0 ef 25 c5 38 9c b1 97 0d 13 2b 16 cb 50 f9 81 41
       -17 37 -59 56 -100 -79 -105 13 19 43 22 -53 80 -7 -127 65
0000c0 81 33 72 07 54 2e 8f 6e 3f 21 97 c3 2b a2 3a 35
       -127 51 114 7 84 46 -113 110 63 33 -105 -61 43 -94 58 53
0000d0 4a 47 2f 1b 81 a7 ef 77 e5 41 1b af 65 54 b5 e5
       74 71 47 27 -127 -89 -17 119 -27 65 27 -81 101 84 -75 -27
0000e0 f8 20 06 57 36 12 b5 31 67 4f 97 e8 81 38 09 3d
       -8 32 6 87 54 18 -75 49 103 79 -105 -24 -127 56 9 61
0000f0 e7 de 05 4b c6 ea a4 4b 57 f2 05 ba b5 4e fa da
       -25 -34 5 75 -58 -22 -92 75 87 -14 5 -70 -75 78 -6 -38

tfl.pseudo_qconst11 i1 [1, 9, 1, 32]
000000 b0 03 f0 05 e6 0f 81 1c b6 d6 09 e9 b5 89 11 35
       -80 3 -16 5 -26 15 -127 28 -74 -42 9 -23 -75 -119 17 53
000010 06 81 14 7f b3 7f 1a cf 7c 3b 39 fe a7 a1 86 29
       6 -127 20 127 -77 127 26 -49 124 59 57 -2 -89 -95 -122 41
000020 aa aa ea 30 21 6a 48 ec 68 e0 b7 0a ca 85 06 12
       -86 -86 -22 48 33 106 72 -20 104 -32 -73 10 -54 -123 6 18
000030 11 c7 f5 0d 2e 08 b7 ef 03 d6 31 24 81 9d 1a c1
       17 -57 -11 13 46 8 -73 -17 3 -42 49 36 -127 -99 26 -63
000040 0d 07 cc 02 2e 1a c8 62 ff 73 ae ee 05 cb 21 ab
       13 7 -52 2 46 26 -56 98 -1 115 -82 -18 5 -53 33 -85
000050 8a ca ed 4d 66 a7 de b8 ec e5 bb da e6 c2 f9 84
       -118 -54 -19 77 102 -89 -34 -72 -20 -27 -69 -38 -26 -62 -7 -124
000060 54 96 37 11 28 c7 ef 0a 74 7f b1 3a d2 81 6a 17
       84 -106 55 17 40 -57 -17 10 116 127 -79 58 -46 -127 106 23
000070 b7 e5 a5 31 df 03 4b f7 c3 d0 f6 0f 97 f6 17 8b
       -73 -27 -91 49 -33 3 75 -9 -61 -48 -10 15 -105 -10 23 -117
000080 7f 14 81 20 38 81 fe 41 5c cb 70 7f a2 48 b3 bb
       127 20 -127 32 56 -127 -2 65 92 -53 112 127 -94 72 -77 -69
000090 13 a0 81 34 b3 9c 0b fd 25 9c c8 9d fa 38 81 cf
       19 -96 -127 52 -77 -100 11 -3 37 -100 -56 -99 -6 56 -127 -49
0000a0 f8 56 ac 7a 7f 18 fd 64 ef 2c fe 3d b4 ed 3e 06
       -8 86 -84 122 127 24 -3 100 -17 44 -2 61 -76 -19 62 6
0000b0 32 3f e0 60 a8 be d0 21 df 81 d8 be 48 3e 05 81
       50 63 -32 96 -88 -66 -48 33 -33 -127 -40 -66 72 62 5 -127
0000c0 34 1f d0 7f 1b 43 36 2a 7f f8 02 2d 56 ad 60 81
       52 31 -48 127 27 67 54 42 127 -8 2 45 86 -83 96 -127
0000d0 01 5f a8 ad 49 af 81 7f 81 8b 81 b5 66 b4 23 1a
       1 95 -88 -83 73 -81 -127 127 -127 -117 -127 -75 102 -76 35 26
0000e0 5c 81 70 7c 65 32 67 7f 78 56 7c 2b 7f d8 81 d6
       92 -127 112 124 101 50 103 127 120 86 124 43 127 -40 -127 -42
0000f0 e6 5c 36 d1 7f fe c8 54 09 19 2c 81 11 3b ce 92
       -26 92 54 -47 127 -2 -56 84 9 25 44 -127 17 59 -50 -110

tfl.pseudo_qconst13 i1 [64, 1, 1, 64]
000000 4b 3c 44 f6 48 f3 3d 41 e5 b5 21 f7 fe de 38 64
       75 60 68 -10 72 -13 61 65 -27 -75 33 -9 -2 -34 56 100
000010 23 3f b4 49 f0 b3 d2 fe 58 3f af 4b f6 88 6b c9
       35 63 -76 73 -16 -77 -46 -2 88 63 -81 75 -10 -120 107 -55
000020 23 61 0d f3 06 c7 35 c4 12 f4 3e b4 c6 ec 2d 47
       35 97 13 -13 6 -57 53 -60 18 -12 62 -76 -58 -20 45 71
000030 1b f2 02 11 06 31 8b 5d 7f 03 0d e7 ff f8 52 94
       27 -14 2 17 6 49 -117 93 127 3 13 -25 -1 -8 82 -108
000040 1d bf 73 b8 53 1d c2 47 e4 39 ef c0 df 5f e9 e1
       29 -65 115 -72 83 29 -62 71 -28 57 -17 -64 -33 95 -23 -31
000050 96 14 2e 00 a8 0a 44 cf 50 de 40 9a 3b fb c8 81
       -106 20 46 0 -88 10 68 -49 80 -34 64 -102 59 -5 -56 -127
000060 f1 89 be 45 bc af 4f 9f a5 bc 7f 9b 7f 8f 6f 37
       -15 -119 -66 69 -68 -81 79 -97 -91 -68 127 -101 127 -113 111 55
000070 1e d6 20 15 2b 34 bd a9 5e ae d3 51 fe 09 51 b9
       30 -42 32 21 43 52 -67 -87 94 -82 -45 81 -2 9 81 -71
000080 d5 a4 15 29 52 3e d4 56 19 1e bf 22 e5 1d ec 26
       -43 -92 21 41 82 62 -44 86 25 30 -65 34 -27 29 -20 38
000090 36 18 ee e0 22 ed 07 f6 21 0f b4 ac c4 2e 39 40
       54 24 -18 -32 34 -19 7 -10 33 15 -76 -84 -60 46 57 64
0000a0 dc 2f 54 c4 42 cd 3e aa 7f e6 bf 14 65 04 e9 1e
       -36 47 84 -60 66 -51 62 -86 127 -26 -65 20 101 4 -23 30
0000b0 04 ac 45 10 1d 09 13 c9 04 05 ec bd 3a 2b 2d 46
       4 -84 69 16 29 9 19 -55 4 5 -20 -67 58 43 45 70
0000c0 46 1e ec 57 cb 65 1f d1 cf 24 ae 3b 72 2c 96 3c
       70 30 -20 87 -53 101 31 -47 -49 36 -82 59 114 44 -106 60
0000d0 e8 91 27 b8 10 8b 46 f1 ac 09 dd c5 6c d3 bb 27
       -24 -111 39 -72 16 -117 70 -15 -84 9 -35 -59 108 -45 -69 39
0000e0 86 c5 0f 42 e8 06 18 9e 04 02 a9 db 2d 02 2f 67
       -122 -59 15 66 -24 6 24 -98 4 2 -87 -37 45 2 47 103
0000f0 bf d6 f0 7f a0 dc 3f d1 f3 cc 14 ce fb 28 d7 49
       -65 -42 -16 127 -96 -36 63 -47 -13 -52 20 -50 -5 40 -41 73

tfl.pseudo_qconst15 i1 [1, 11, 1, 32]
000000 4a 27 d8 26 43 7f 22 ce c2 ae 70 b4 75 4a 12 dc
       74 39 -40 38 67 127 34 -50 -62 -82 112 -76 117 74 18 -36
000010 81 cf a7 c0 c7 90 92 b4 b4 d4 39 6a 3d 81 16 cd
       -127 -49 -89 -64 -57 -112 -110 -76 -76 -44 57 106 61 -127 22 -51
000020 9d 09 14 cb 53 0b 51 a7 81 81 7d 54 ac c9 38 cd
       -99 9 20 -53 83 11 81 -89 -127 -127 125 84 -84 -55 56 -51
000030 25 cb e6 81 f2 07 07 df 45 49 44 7f 6e f9 d3 fe
       37 -53 -26 -127 -14 7 7 -33 69 73 68 127 110 -7 -45 -2
000040 2e 7f b3 ca cf 47 f8 4d c0 c6 24 63 15 41 31 a9
       46 127 -77 -54 -49 71 -8 77 -64 -58 36 99 21 65 49 -87
000050 b9 7a 3a a7 b5 d1 38 3d b2 7f 22 6c e3 c1 21 bb
       -71 122 58 -89 -75 -47 56 61 -78 127 34 108 -29 -63 33 -69
000060 0a 3e 81 81 b8 03 81 2d 03 ef e4 7f 7f 79 9e 14
       10 62 -127 -127 -72 3 -127 45 3 -17 -28 127 127 121 -98 20
000070 d9 50 cc c2 b0 07 31 65 cb 35 7f c9 d2 f2 c8 4c
       -39 80 -52 -62 -80 7 49 101 -53 53 127 -55 -46 -14 -56 76
000080 51 3a 19 c8 9c 5b ac 9c 35 17 20 94 08 3a 18 18
       81 58 25 -56 -100 91 -84 -100 53 23 32 -108 8 58 24 24
000090 2b 7f 7f f9 27 53 dc e6 88 dc 17 dc 18 dd 63 2f
       43 127 127 -7 39 83 -36 -26 -120 -36 23 -36 24 -35 99 47
0000a0 37 2e d5 ef ad fc f6 d0 2d 1a 97 09 49 4a dd 7f
       55 46 -43 -17 -83 -4 -10 -48 45 26 -105 9 73 74 -35 127
0000b0 53 e9 3c b3 f4 7f f7 cc a1 eb 4d 9f f3 fb 72 35
       83 -23 60 -77 -12 127 -9 -52 -95 -21 77 -97 -13 -5 114 53
0000c0 7f fb 42 2b cc d7 c7 5a 34 d2 f4 63 56 bc 25 fc
       127 -5 66 43 -52 -41 -57 90 52 -46 -12 99 86 -68 37 -4
0000d0 45 2e 07 be e6 19 9d 31 fb 02 de 85 91 15 57 05
       69 46 7 -66 -26 25 -99 49 -5 2 -34 -123 -111 21 87 5
0000e0 1f ee 99 ff a8 20 30 5f ef 4d a9 ee f1 c2 7f 28
       31 -18 -103 -1 -88 32 48 95 -17 77 -87 -18 -15 -62 127 40
0000f0 da f2 fc bc 2b 7a cc 85 f4 14 23 6e 91 2a 0e f1
       -38 -14 -4 -68 43 122 -52 -123 -12 20 35 110 -111 42 14 -15

tfl.pseudo_qconst17 i1 [1, 7, 1, 32]
000000 40 81 25 b1 3b c8 4a 7f cc a5 46 0e 92 81 7f ad
       64 -127 37 -79 59 -56 74 127 -52 -91 70 14 -110 -127 127 -83
000010 cf 1f 04 65 b5 46 00 2d 81 9c 81 65 0a 81 77 57
       -49 31 4 101 -75 70 0 45 -127 -100 -127 101 10 -127 119 87
000020 77 e7 77 35 74 0a 2a 74 7f 95 08 7f e6 41 f8 ab
       119 -25 119 53 116 10 42 116 127 -107 8 127 -26 65 -8 -85
000030 d5 22 aa 0e 8c e3 ee 7f ec 81 23 7f b4 f4 22 7f
       -43 34 -86 14 -116 -29 -18 127 -20 -127 35 127 -76 -12 34 127
000040 81 88 d8 fc a6 b5 45 5a e6 50 7f d6 a6 f6 2c bc
       -127 -120 -40 -4 -90 -75 69 90 -26 80 127 -42 -90 -10 44 -68
000050 c2 48 22 f5 f4 1c 62 5b 73 61 b5 ba dd f0 ae 39
       -62 72 34 -11 -12 28 98 91 115 97 -75 -70 -35 -16 -82 57
000060 dc 28 3f e9 0a 1a eb 5d fe a1 24 6e d2 9d b8 4e
       -36 40 63 -23 10 26 -21 93 -2 -95 36 110 -46 -99 -72 78
000070 00 de 34 5f 6e d3 48 9c 64 de 45 e3 81 eb 81 cc
       0 -34 52 95 110 -45 72 -100 100 -34 69 -29 -127 -21 -127 -52
000080 f2 0f 52 49 68 e0 81 f8 0f 81 6d a2 dc 13 cd 60
       -14 15 82 73 104 -32 -127 -8 15 -127 109 -94 -36 19 -51 96
000090 7f d4 93 7f 35 81 a4 27 14 0d 32 39 eb 3a 36 1f
       127 -44 -109 127 53 -127 -92 39 20 13 50 57 -21 58 54 31
0000a0 ee 79 c1 22 f3 d6 e1 a4 93 13 5d e8 81 bb d6 7b
       -18 121 -63 34 -13 -42 -31 -92 -109 19 93 -24 -127 -69 -42 123
0000b0 75 d2 81 4d 81 0b 81 99 49 50 22 62 fa 5d 30 23
       117 -46 -127 77 -127 11 -127 -103 73 80 34 98 -6 93 48 35
0000c0 dd 02 81 81 81 81 35 b1 b5 60 69 2d 44 c4 3f 7f
       -35 2 -127 -127 -127 -127 53 -79 -75 96 105 45 68 -60 63 127
0000d0 c9 81 a1 35 90 e5 b8 4e 26 4e f2 d5 aa 52 ba a6
       -55 -127 -95 53 -112 -27 -72 78 38 78 -14 -43 -86 82 -70 -90

tfl.pseudo_qconst19 i1 [64, 1, 1, 32]
000000 d1 e4 03 c0 20 bb 7f c2 14 36 2c d5 26 c5 ba d2
       -47 -28 3 -64 32 -69 127 -62 20 54 44 -43 38 -59 -70 -46
000010 f7 61 ef 57 be ed a9 26 7d 2f 0d c0 38 39 36 fb
       -9 97 -17 87 -66 -19 -87 38 125 47 13 -64 56 57 54 -5
000020 f7 f4 c1 46 14 a4 d5 1d 30 e9 d6 f3 cd f6 10 81
       -9 -12 -63 70 20 -92 -43 29 48 -23 -42 -13 -51 -10 16 -127
000030 f4 d3 1d e9 1b da c3 bf ef 10 17 c3 17 50 e9 05
       -12 -45 29 -23 27 -38 -61 -65 -17 16 23 -61 23 80 -23 5
000040 17 43 46 07 b1 56 a9 66 d8 50 d8 db a4 e2 ba 56
       23 67 70 7 -79 86 -87 102 -40 80 -40 -37 -92 -30 -70 86
000050 ff ca 1e 10 a0 ee 3b b0 96 33 33 81 db 2a 22 1c
       -1 -54 30 16 -96 -18 59 -80 -106 51 51 -127 -37 42 34 28
000060 bd 2a 0c ad 87 f7 d3 62 30 64 cb 4b cf 4d a0 40
       -67 42 12 -83 -121 -9 -45 98 48 100 -53 75 -49 77 -96 64
000070 0f a2 b5 a5 96 4a 11 a7 d2 91 f1 cd e1 7f c9 91
       15 -94 -75 -91 -106 74 17 -89 -46 -111 -15 -51 -31 127 -55 -111
000080 58 ec 15 b6 b0 09 9c 5f bb 3f 9d 55 1f ab d4 bb
       88 -20 21 -74 -80 9 -100 95 -69 63 -99 85 31 -85 -44 -69
000090 a8 17 d1 d1 cc b0 a9 28 c4 eb af a4 0a dc e4 81
       -88 23 -47 -47 -52 -80 -87 40 -60 -21 -81 -92 10 -36 -28 -127
0000a0 42 55 c2 d5 67 3f 15 e9 d5 8e 12 b3 34 07 3a e2
       66 85 -62 -43 103 63 21 -23 -43 -114 18 -77 52 7 58 -30
0000b0 38 11 33 a1 99 c1 ef 81 e1 10 3b e3 76 c0 20 bb
       56 17 51 -95 -103 -63 -17 -127 -31 16 59 -29 118 -64 32 -69
0000c0 14 c5 aa 42 ad b3 29 9e b7 1e bb a3 81 49 06 ad
       20 -59 -86 66 -83 -77 41 -98 -73 30 -69 -93 -127 73 6 -83
0000d0 6a ea b4 3d a6 a5 9e 01 f5 25 ad 9d 6d f6 a6 f2
       106 -22 -76 61 -90 -91 -98 1 -11 37 -83 -99 109 -10 -90 -14
0000e0 c9 fa 0f 39 27 c3 ef f3 c9 92 b6 a9 fe 35 36 79
       -55 -6 15 57 39 -61 -17 -13 -55 -110 -74 -87 -2 53 54 121
0000f0 d0 09 39 60 48 3e 9b 02 d2 40 e5 bf 22 27 7f 2b
       -48 9 57 96 72 62 -101 2 -46 64 -27 -65 34 39 127 43

tfl.pseudo_qconst21 i1 [1, 5, 1, 32]
000000 4a ed 59 7f e0 52 a8 4e 6d dc 99 44 ed 05 81 04
       74 -19 89 127 -32 82 -88 78 109 -36 -103 68 -19 5 -127 4
000010 ce ae af 9f bb 8b aa 4c d4 c5 9f 25 7f 31 43 81
       -50 -82 -81 -97 -69 -117 -86 76 -44 -59 -97 37 127 49 67 -127
000020 1e 05 54 2e da 0c 74 6e 7c 4f e9 27 d7 e0 ae 57
       30 5 84 46 -38 12 116 110 124 79 -23 39 -41 -32 -82 87
000030 75 81 00 a9 83 6e fd 4d df 5a b7 7f 52 30 7f f3
       117 -127 0 -87 -125 110 -3 77 -33 90 -73 127 82 48 127 -13
000040 87 eb 54 ce d2 2c 7f f6 84 1d ba 12 ee c0 97 e4
       -121 -21 84 -50 -46 44 127 -10 -124 29 -70 18 -18 -64 -105 -28
000050 f2 5d 81 20 81 7f 24 2f 81 7f 71 57 97 bb 7b 93
       -14 93 -127 32 -127 127 36 47 -127 127 113 87 -105 -69 123 -109
000060 7f 97 6e 44 5f 7f a0 7f 7f 30 22 85 7f 7f f7 3f
       127 -105 110 68 95 127 -96 127 127 48 34 -123 127 127 -9 63
000070 7f eb 7f 6f ae 27 81 01 e8 82 7f 03 28 81 19 65
       127 -21 127 111 -82 39 -127 1 -24 -126 127 3 40 -127 25 101
000080 f7 7f 7f 2f 7f 33 5b b4 75 81 7f 81 3a e1 d7 7f
       -9 127 127 47 127 51 91 -76 117 -127 127 -127 58 -31 -41 127
000090 b1 5a 88 7f 05 fa f5 81 0a 54 2a b7 24 3a b6 8f
       -79 90 -120 127 5 -6 -11 -127 10 84 42 -73 36 58 -74 -113

tfl.pseudo_qconst23 i1 [32, 5, 1, 40]
000000 67 53 1d 1b 49 d6 bc a3 6e f8 37 2e b6 d2 b4 bf
       103 83 29 27 73 -42 -68 -93 110 -8 55 46 -74 -46 -76 -65
000010 26 87 19 d5 f1 a7 d4 5f 51 fe 46 2e c6 0b bf 2d
       38 -121 25 -43 -15 -89 -44 95 81 -2 70 46 -58 11 -65 45
000020 72 bc 32 92 e0 d9 4e d7 c3 f0 57 e1 12 cc be b0
       114 -68 50 -110 -32 -39 78 -41 -61 -16 87 -31 18 -52 -66 -80
000030 1e fa 33 3d 5d e0 b9 9b 32 f1 13 aa b7 91 cc fe
       30 -6 51 61 93 -32 -71 -101 50 -15 19 -86 -73 -111 -52 -2
000040 0e 0d 25 54 c4 a4 25 a2 a2 e3 bf 9e 20 b5 0d 16
       14 13 37 84 -60 -92 37 -94 -94 -29 -65 -98 32 -75 13 22
000050 d5 0c 68 fb e1 3e ad 06 48 be a6 29 e6 3b 36 11
       -43 12 104 -5 -31 62 -83 6 72 -66 -90 41 -26 59 54 17
000060 1c ca de 9f d1 ec c8 cb 6f e9 3c 9e 63 51 2d c3
       28 -54 -34 -97 -47 -20 -56 -53 111 -23 60 -98 99 81 45 -61
000070 67 7e f0 51 fa 24 c0 f4 43 1a 7f 71 74 f4 e7 29
       103 126 -16 81 -6 36 -64 -12 67 26 127 113 116 -12 -25 41
000080 c2 cd 1e 40 5e 2d 68 cc 25 a9 2d 9e b7 e5 e7 1e
       -62 -51 30 64 94 45 104 -52 37 -87 45 -98 -73 -27 -25 30
000090 e9 ff b3 d8 06 e6 43 3b 0e 46 29 c9 41 69 d7 f3
       -23 -1 -77 -40 6 -26 67 59 14 70 41 -55 65 105 -41 -13
0000a0 53 2a ff 6c 29 29 ef 38 b5 a0 43 00 05 37 4c 0a
       83 42 -1 108 41 41 -17 56 -75 -96 67 0 5 55 76 10
0000b0 df 8f e9 da 10 99 52 23 08 f0 c3 dc 73 33 3c df
       -33 -113 -23 -38 16 -103 82 35 8 -16 -61 -36 115 51 60 -33
0000c0 74 c0 5e fd 60 6b 4d a8 58 f7 00 4b 2e 00 f4 fd
       116 -64 94 -3 96 107 77 -88 88 -9 0 75 46 0 -12 -3
0000d0 22 df e7 39 f7 0e de f6 34 e6 d4 8e 4a a2 da b1
       34 -33 -25 57 -9 14 -34 -10 52 -26 -44 -114 74 -94 -38 -79
0000e0 01 a0 eb 0a b6 1d a7 ee c7 f0 75 f0 0b 25 aa fc
       1 -96 -21 10 -74 29 -89 -18 -57 -16 117 -16 11 37 -86 -4
0000f0 c4 e1 54 0d c8 b6 2e dc 35 f4 bf dc 20 bb f1 bd
       -60 -31 84 13 -56 -74 46 -36 53 -12 -65 -36 32 -69 -15 -67

tfl.pseudo_qconst24 i1 [1, 22, 1, 64] scale=0.031443454 zero_point=-128
000000 80 80 80 80 80 80 80 80 80 80 80 80 80 80 80 80
       0.0 0.0 0.0 0.0 0.0 0.0 0.0 0.0 0.0 0.0 0.0 0.0 0.0 0.0 0.0 0.0
000010 80 80 80 80 80 80 80 80 80 80 80 80 80 80 80 80
       0.0 0.0 0.0 0.0 0.0 0.0 0.0 0.0 0.0 0.0 0.0 0.0 0.0 0.0 0.0 0.0
000020 80 80 80 80 80 80 80 80 80 80 80 80 80 80 80 80
       0.0 0.0 0.0 0.0 0.0 0.0 0.0 0.0 0.0 0.0 0.0 0.0 0.0 0.0 0.0 0.0
000030 80 80 80 80 80 80 80 80 80 80 80 80 80 80 80 80
       0.0 0.0 0.0 0.0 0.0 0.0 0.0 0.0 0.0 0.0 0.0 0.0 0.0 0.0 0.0 0.0
000040 80 80 80 80 80 80 80 80 80 80 80 80 80 80 80 80
       0.0 0.0 0.0 0.0 0.0 0.0 0.0 0.0 0.0 0.0 0.0 0.0 0.0 0.0 0.0 0.0
000050 80 80 80 80 80 80 80 80 80 80 80 80 80 80 80 80
       0.0 0.0 0.0 0.0 0.0 0.0 0.0 0.0 0.0 0.0 0.0 0.0 0.0 0.0 0.0 0.0
000060 80 80 80 80 80 80 80 80 80 80 80 80 80 80 80 80
       0.0 0.0 0.0 0.0 0.0 0.0 0.0 0.0 0.0 0.0 0.0 0.0 0.0 0.0 0.0 0.0
000070 80 80 80 80 80 80 80 80 80 80 80 80 80 80 80 80
       0.0 0.0 0.0 0.0 0.0 0.0 0.0 0.0 0.0 0.0 0.0 0.0 0.0 0.0 0.0 0.0
000080 80 80 80 80 80 80 80 80 80 80 80 80 80 80 80 80
       0.0 0.0 0.0 0.0 0.0 0.0 0.0 0.0 0.0 0.0 0.0 0.0 0.0 0.0 0.0 0.0
000090 80 80 80 80 80 80 80 80 80 80 80 80 80 80 80 80
       0.0 0.0 0.0 0.0 0.0 0.0 0.0 0.0 0.0 0.0 0.0 0.0 0.0 0.0 0.0 0.0
0000a0 80 80 80 80 80 80 80 80 80 80 80 80 80 80 80 80
       0.0 0.0 0.0 0.0 0.0 0.0 0.0 0.0 0.0 0.0 0.0 0.0 0.0 0.0 0.0 0.0
0000b0 80 80 80 80 80 80 80 80 80 80 80 80 80 80 80 80
       0.0 0.0 0.0 0.0 0.0 0.0 0.0 0.0 0.0 0.0 0.0 0.0 0.0 0.0 0.0 0.0
0000c0 80 80 80 80 80 80 80 80 80 80 80 80 80 80 80 80
       0.0 0.0 0.0 0.0 0.0 0.0 0.0 0.0 0.0 0.0 0.0 0.0 0.0 0.0 0.0 0.0
0000d0 80 80 80 80 80 80 80 80 80 80 80 80 80 80 80 80
       0.0 0.0 0.0 0.0 0.0 0.0 0.0 0.0 0.0 0.0 0.0 0.0 0.0 0.0 0.0 0.0
0000e0 80 80 80 80 80 80 80 80 80 80 80 80 80 80 80 80
       0.0 0.0 0.0 0.0 0.0 0.0 0.0 0.0 0.0 0.0 0.0 0.0 0.0 0.0 0.0 0.0
0000f0 80 80 80 80 80 80 80 80 80 80 80 80 80 80 80 80
       0.0 0.0 0.0 0.0 0.0 0.0 0.0 0.0 0.0 0.0 0.0 0.0 0.0 0.0 0.0 0.0

tfl.pseudo_qconst25 i1 [1, 16, 1, 64] scale=0.02292999 zero_point=-128
000000 80 80 80 80 80 80 80 80 80 80 80 80 80 80 80 80
       0.0 0.0 0.0 0.0 0.0 0.0 0.0 0.0 0.0 0.0 0.0 0.0 0.0 0.0 0.0 0.0
000010 80 80 80 80 80 80 80 80 80 80 80 80 80 80 80 80
       0.0 0.0 0.0 0.0 0.0 0.0 0.0 0.0 0.0 0.0 0.0 0.0 0.0 0.0 0.0 0.0
000020 80 80 80 80 80 80 80 80 80 80 80 80 80 80 80 80
       0.0 0.0 0.0 0.0 0.0 0.0 0.0 0.0 0.0 0.0 0.0 0.0 0.0 0.0 0.0 0.0
000030 80 80 80 80 80 80 80 80 80 80 80 80 80 80 80 80
       0.0 0.0 0.0 0.0 0.0 0.0 0.0 0.0 0.0 0.0 0.0 0.0 0.0 0.0 0.0 0.0
000040 80 80 80 80 80 80 80 80 80 80 80 80 80 80 80 80
       0.0 0.0 0.0 0.0 0.0 0.0 0.0 0.0 0.0 0.0 0.0 0.0 0.0 0.0 0.0 0.0
000050 80 80 80 80 80 80 80 80 80 80 80 80 80 80 80 80
       0.0 0.0 0.0 0.0 0.0 0.0 0.0 0.0 0.0 0.0 0.0 0.0 0.0 0.0 0.0 0.0
000060 80 80 80 80 80 80 80 80 80 80 80 80 80 80 80 80
       0.0 0.0 0.0 0.0 0.0 0.0 0.0 0.0 0.0 0.0 0.0 0.0 0.0 0.0 0.0 0.0
000070 80 80 80 80 80 80 80 80 80 80 80 80 80 80 80 80
       0.0 0.0 0.0 0.0 0.0 0.0 0.0 0.0 0.0 0.0 0.0 0.0 0.0 0.0 0.0 0.0
000080 80 80 80 80 80 80 80 80 80 80 80 80 80 80 80 80
       0.0 0.0 0.0 0.0 0.0 0.0 0.0 0.0 0.0 0.0 0.0 0.0 0.0 0.0 0.0 0.0
000090 80 80 80 80 80 80 80 80 80 80 80 80 80 80 80 80
       0.0 0.0 0.0 0.0 0.0 0.0 0.0 0.0 0.0 0.0 0.0 0.0 0.0 0.0 0.0 0.0
0000a0 80 80 80 80 80 80 80 80 80 80 80 80 80 80 80 80
       0.0 0.0 0.0 0.0 0.0 0.0 0.0 0.0 0.0 0.0 0.0 0.0 0.0 0.0 0.0 0.0
0000b0 80 80 80 80 80 80 80 80 80 80 80 80 80 80 80 80
       0.0 0.0 0.0 0.0 0.0 0.0 0.0 0.0 0.0 0.0 0.0 0.0 0.0 0.0 0.0 0.0
0000c0 80 80 80 80 80 80 80 80 80 80 80 80 80 80 80 80
       0.0 0.0 0.0 0.0 0.0 0.0 0.0 0.0 0.0 0.0 0.0 0.0 0.0 0.0 0.0 0.0
0000d0 80 80 80 80 80 80 80 80 80 80 80 80 80 80 80 80
       0.0 0.0 0.0 0.0 0.0 0.0 0.0 0.0 0.0 0.0 0.0 0.0 0.0 0.0 0.0 0.0
0000e0 80 80 80 80 80 80 80 80 80 80 80 80 80 80 80 80
       0.0 0.0 0.0 0.0 0.0 0.0 0.0 0.0 0.0 0.0 0.0 0.0 0.0 0.0 0.0 0.0
0000f0 80 80 80 80 80 80 80 80 80 80 80 80 80 80 80 80
       0.0 0.0 0.0 0.0 0.0 0.0 0.0 0.0 0.0 0.0 0.0 0.0 0.0 0.0 0.0 0.0

tfl.pseudo_qconst26 i1 [1, 2, 1, 40] scale=0.101960786 zero_point=-128
000000 80 80 80 80 80 80 80 80 80 80 80 80 80 80 80 80
       0.0 0.0 0.0 0.0 0.0 0.0 0.0 0.0 0.0 0.0 0.0 0.0 0.0 0.0 0.0 0.0
000010 80 80 80 80 80 80 80 80 80 80 80 80 80 80 80 80
       0.0 0.0 0.0 0.0 0.0 0.0 0.0 0.0 0.0 0.0 0.0 0.0 0.0 0.0 0.0 0.0
000020 80 80 80 80 80 80 80 80 80 80 80 80 80 80 80 80
       0.0 0.0 0.0 0.0 0.0 0.0 0.0 0.0 0.0 0.0 0.0 0.0 0.0 0.0 0.0 0.0
000030 80 80 80 80 80 80 80 80 80 80 80 80 80 80 80 80
       0.0 0.0 0.0 0.0 0.0 0.0 0.0 0.0 0.0 0.0 0.0 0.0 0.0 0.0 0.0 0.0
000040 80 80 80 80 80 80 80 80 80 80 80 80 80 80 80 80
       0.0 0.0 0.0 0.0 0.0 0.0 0.0 0.0 0.0 0.0 0.0 0.0 0.0 0.0 0.0 0.0

tfl.pseudo_qconst27 i1 [1, 4, 1, 32] scale=0.5051866 zero_point=-128
000000 80 80 80 80 80 80 80 80 80 80 80 80 80 80 80 80
       0.0 0.0 0.0 0.0 0.0 0.0 0.0 0.0 0.0 0.0 0.0 0.0 0.0 0.0 0.0 0.0
000010 80 80 80 80 80 80 80 80 80 80 80 80 80 80 80 80
       0.0 0.0 0.0 0.0 0.0 0.0 0.0 0.0 0.0 0.0 0.0 0.0 0.0 0.0 0.0 0.0
000020 80 80 80 80 80 80 80 80 80 80 80 80 80 80 80 80
       0.0 0.0 0.0 0.0 0.0 0.0 0.0 0.0 0.0 0.0 0.0 0.0 0.0 0.0 0.0 0.0
000030 80 80 80 80 80 80 80 80 80 80 80 80 80 80 80 80
       0.0 0.0 0.0 0.0 0.0 0.0 0.0 0.0 0.0 0.0 0.0 0.0 0.0 0.0 0.0 0.0
000040 80 80 80 80 80 80 80 80 80 80 80 80 80 80 80 80
       0.0 0.0 0.0 0.0 0.0 0.0 0.0 0.0 0.0 0.0 0.0 0.0 0.0 0.0 0.0 0.0
000050 80 80 80 80 80 80 80 80 80 80 80 80 80 80 80 80
       0.0 0.0 0.0 0.0 0.0 0.0 0.0 0.0 0.0 0.0 0.0 0.0 0.0 0.0 0.0 0.0
000060 80 80 80 80 80 80 80 80 80 80 80 80 80 80 80 80
       0.0 0.0 0.0 0.0 0.0 0.0 0.0 0.0 0.0 0.0 0.0 0.0 0.0 0.0 0.0 0.0
000070 80 80 80 80 80 80 80 80 80 80 80 80 80 80 80 80
       0.0 0.0 0.0 0.0 0.0 0.0 0.0 0.0 0.0 0.0 0.0 0.0 0.0 0.0 0.0 0.0

tfl.pseudo_qconst28 i1 [1, 10, 1, 64] scale=0.037882596 zero_point=-128
000000 80 80 80 80 80 80 80 80 80 80 80 80 80 80 80 80
       0.0 0.0 0.0 0.0 0.0 0.0 0.0 0.0 0.0 0.0 0.0 0.0 0.0 0.0 0.0 0.0
000010 80 80 80 80 80 80 80 80 80 80 80 80 80 80 80 80
       0.0 0.0 0.0 0.0 0.0 0.0 0.0 0.0 0.0 0.0 0.0 0.0 0.0 0.0 0.0 0.0
000020 80 80 80 80 80 80 80 80 80 80 80 80 80 80 80 80
       0.0 0.0 0.0 0.0 0.0 0.0 0.0 0.0 0.0 0.0 0.0 0.0 0.0 0.0 0.0 0.0
000030 80 80 80 80 80 80 80 80 80 80 80 80 80 80 80 80
       0.0 0.0 0.0 0.0 0.0 0.0 0.0 0.0 0.0 0.0 0.0 0.0 0.0 0.0 0.0 0.0
000040 80 80 80 80 80 80 80 80 80 80 80 80 80 80 80 80
       0.0 0.0 0.0 0.0 0.0 0.0 0.0 0.0 0.0 0.0 0.0 0.0 0.0 0.0 0.0 0.0
000050 80 80 80 80 80 80 80 80 80 80 80 80 80 80 80 80
       0.0 0.0 0.0 0.0 0.0 0.0 0.0 0.0 0.0 0.0 0.0 0.0 0.0 0.0 0.0 0.0
000060 80 80 80 80 80 80 80 80 80 80 80 80 80 80 80 80
       0.0 0.0 0.0 0.0 0.0 0.0 0.0 0.0 0.0 0.0 0.0 0.0 0.0 0.0 0.0 0.0
000070 80 80 80 80 80 80 80 80 80 80 80 80 80 80 80 80
       0.0 0.0 0.0 0.0 0.0 0.0 0.0 0.0 0.0 0.0 0.0 0.0 0.0 0.0 0.0 0.0
000080 80 80 80 80 80 80 80 80 80 80 80 80 80 80 80 80
       0.0 0.0 0.0 0.0 0.0 0.0 0.0 0.0 0.0 0.0 0.0 0.0 0.0 0.0 0.0 0.0
000090 80 80 80 80 80 80 80 80 80 80 80 80 80 80 80 80
       0.0 0.0 0.0 0.0 0.0 0.0 0.0 0.0 0.0 0.0 0.0 0.0 0.0 0.0 0.0 0.0
0000a0 80 80 80 80 80 80 80 80 80 80 80 80 80 80 80 80
       0.0 0.0 0.0 0.0 0.0 0.0 0.0 0.0 0.0 0.0 0.0 0.0 0.0 0.0 0.0 0.0
0000b0 80 80 80 80 80 80 80 80 80 80 80 80 80 80 80 80
       0.0 0.0 0.0 0.0 0.0 0.0 0.0 0.0 0.0 0.0 0.0 0.0 0.0 0.0 0.0 0.0
0000c0 80 80 80 80 80 80 80 80 80 80 80 80 80 80 80 80
       0.0 0.0 0.0 0.0 0.0 0.0 0.0 0.0 0.0 0.0 0.0 0.0 0.0 0.0 0.0 0.0
0000d0 80 80 80 80 80 80 80 80 80 80 80 80 80 80 80 80
       0.0 0.0 0.0 0.0 0.0 0.0 0.0 0.0 0.0 0.0 0.0 0.0 0.0 0.0 0.0 0.0
0000e0 80 80 80 80 80 80 80 80 80 80 80 80 80 80 80 80
       0.0 0.0 0.0 0.0 0.0 0.0 0.0 0.0 0.0 0.0 0.0 0.0 0.0 0.0 0.0 0.0
0000f0 80 80 80 80 80 80 80 80 80 80 80 80 80 80 80 80
       0.0 0.0 0.0 0.0 0.0 0.0 0.0 0.0 0.0 0.0 0.0 0.0 0.0 0.0 0.0 0.0

tfl.pseudo_qconst29 i1 [1, 14, 1, 64] scale=0.035409603 zero_point=-128
000000 80 80 80 80 80 80 80 80 80 80 80 80 80 80 80 80
       0.0 0.0 0.0 0.0 0.0 0.0 0.0 0.0 0.0 0.0 0.0 0.0 0.0 0.0 0.0 0.0
000010 80 80 80 80 80 80 80 80 80 80 80 80 80 80 80 80
       0.0 0.0 0.0 0.0 0.0 0.0 0.0 0.0 0.0 0.0 0.0 0.0 0.0 0.0 0.0 0.0
000020 80 80 80 80 80 80 80 80 80 80 80 80 80 80 80 80
       0.0 0.0 0.0 0.0 0.0 0.0 0.0 0.0 0.0 0.0 0.0 0.0 0.0 0.0 0.0 0.0
000030 80 80 80 80 80 80 80 80 80 80 80 80 80 80 80 80
       0.0 0.0 0.0 0.0 0.0 0.0 0.0 0.0 0.0 0.0 0.0 0.0 0.0 0.0 0.0 0.0
000040 80 80 80 80 80 80 80 80 80 80 80 80 80 80 80 80
       0.0 0.0 0.0 0.0 0.0 0.0 0.0 0.0 0.0 0.0 0.0 0.0 0.0 0.0 0.0 0.0
000050 80 80 80 80 80 80 80 80 80 80 80 80 80 80 80 80
       0.0 0.0 0.0 0.0 0.0 0.0 0.0 0.0 0.0 0.0 0.0 0.0 0.0 0.0 0.0 0.0
000060 80 80 80 80 80 80 80 80 80 80 80 80 80 80 80 80
       0.0 0.0 0.0 0.0 0.0 0.0 0.0 0.0 0.0 0.0 0.0 0.0 0.0 0.0 0.0 0.0
000070 80 80 80 80 80 80 80 80 80 80 80 80 80 80 80 80
       0.0 0.0 0.0 0.0 0.0 0.0 0.0 0.0 0.0 0.0 0.0 0.0 0.0 0.0 0.0 0.0
000080 80 80 80 80 80 80 80 80 80 80 80 80 80 80 80 80
       0.0 0.0 0.0 0.0 0.0 0.0 0.0 0.0 0.0 0.0 0.0 0.0 0.0 0.0 0.0 0.0
000090 80 80 80 80 80 80 80 80 80 80 80 80 80 80 80 80
       0.0 0.0 0.0 0.0 0.0 0.0 0.0 0.0 0.0 0.0 0.0 0.0 0.0 0.0 0.0 0.0
0000a0 80 80 80 80 80 80 80 80 80 80 80 80 80 80 80 80
       0.0 0.0 0.0 0.0 0.0 0.0 0.0 0.0 0.0 0.0 0.0 0.0 0.0 0.0 0.0 0.0
0000b0 80 80 80 80 80 80 80 80 80 80 80 80 80 80 80 80
       0.0 0.0 0.0 0.0 0.0 0.0 0.0 0.0 0.0 0.0 0.0 0.0 0.0 0.0 0.0 0.0
0000c0 80 80 80 80 80 80 80 80 80 80 80 80 80 80 80 80
       0.0 0.0 0.0 0.0 0.0 0.0 0.0 0.0 0.0 0.0 0.0 0.0 0.0 0.0 0.0 0.0
0000d0 80 80 80 80 80 80 80 80 80 80 80 80 80 80 80 80
       0.0 0.0 0.0 0.0 0.0 0.0 0.0 0.0 0.0 0.0 0.0 0.0 0.0 0.0 0.0 0.0
0000e0 80 80 80 80 80 80 80 80 80 80 80 80 80 80 80 80
       0.0 0.0 0.0 0.0 0.0 0.0 0.0 0.0 0.0 0.0 0.0 0.0 0.0 0.0 0.0 0.0
0000f0 80 80 80 80 80 80 80 80 80 80 80 80 80 80 80 80
       0.0 0.0 0.0 0.0 0.0 0.0 0.0 0.0 0.0 0.0 0.0 0.0 0.0 0.0 0.0 0.0
